topic_modeling/bert_topic/results/wor_text/distilroberta/my_model/topic_embeddings.safetensors (safetensors, 132184 bytes, 1 tensors)

topic_embeddings f4 [43, 768]
0	0xbb6a679e	-0.0035767327
1	0x3c8924c5	0.016741166
2	0x3c724345	0.014786546
3	0x3d1b4828	0.03791061
4	0x3d28f914	0.041253164
5	0xba9d222b	-0.0011988332
6	0xbc9567b9	-0.018237935
7	0xbc455787	-0.012044794
8	0x3bda0342	0.0066532204
9	0x3c0fdc16	0.0087805
10	0xbc0d5cf3	-0.008628118
11	0x3c94b6c1	0.01815355
12	0x3c25eeef	0.010127767
13	0xbca3ca29	-0.019993858
14	0xbcfaa698	-0.030597016
15	0xbcc8fd22	-0.024534766
16	0x3c991a57	0.018689318
17	0xbd064899	-0.03278408
18	0xbc82aae5	-0.01595063
19	0x3c84f699	0.016230868
20	0x3c7fd304	0.015614275
21	0xbca9b4cc	-0.020716093
22	0xbcc6d8ba	-0.024273265
23	0xbb4a410d	-0.0030861527
24	0x3c94655a	0.018114734
25	0x3c07281b	0.008249308
26	0x3aa4fa9a	0.0012586892
27	0x3b19b0fc	0.0023451438
28	0x3b5c5e06	0.0033625378
29	0xbcf7d24a	-0.03025164
30	0xbc57e032	-0.013176011
31	0x3d04c21e	0.032411687
32	0x3984fd84	0.00025365886
33	0xbc422dbe	-0.011851726
34	0x3bb83acd	0.005622244
35	0x3c22803e	0.009918271
36	0xbce0093e	-0.027348157
37	0xbc3e99d3	-0.011633354
38	0x3cf2251c	0.02955871
39	0xbcb0ea2b	-0.021596035
40	0xbcf09f0d	-0.029372716
41	0xb944dede	-0.00018775041
42	0xbd244bb6	-0.040111266
43	0xbc21b4f5	-0.009869804
44	0xbc85b7b8	-0.016322955
45	0xbcf4f93c	-0.029904
46	0xbb2fe540	-0.0026839525
47	0x3b15f3df	0.0022880954
48	0xbc606a91	-0.013697282
49	0x3d050f60	0.032485366
50	0x3c578635	0.013154556
51	0x3cd398ce	0.025829699
52	0xbcc49812	-0.023998294
53	0xbc1c6b19	-0.009547018
54	0x3c5f861b	0.013642813
55	0xbcdf4bc7	-0.027257813
56	0xbc295a2d	-0.010336441
57	0x3d133991	0.03594357
58	0xba965612	-0.0011469743
59	0xbbdb8776	-0.006699498
60	0x3d1eddb7	0.038785663
61	0xbb84a9e6	-0.004048574
62	0x3c9ebcc5	0.019377122
63	0x3cbfefbe	0.023429748
64	0x38c6f39e	9.486753e-05
65	0xbae5ff78	-0.0017547449
66	0x3b1f998f	0.0024353003
67	0x3caf7ea6	0.021422695
68	0x3c740c7e	0.0148955565
69	0x3d0f728f	0.03502136
70	0x3b13eee1	0.0022572803
71	0x3d04e9f0	0.032449663
72	0xbcc6f220	-0.024285376
73	0x3ba3cf16	0.004999052
74	0xbc3030e5	-0.010753845
75	0xbb9ddaf5	-0.0048173615
76	0xbd0ff301	-0.035143856
77	0xbbf2255c	-0.0073897075
78	0x3bf260a4	0.0073967744
79	0xbca9b8be	-0.020717975
80	0x3c9abedc	0.018889837
81	0xbc1c0d8f	-0.009524717
82	0xba88454f	-0.0010396632
83	0xbbf4d273	-0.0074713766
84	0x3c4b21a6	0.012398159
85	0x3b698367	0.00356313
86	0x3c29e65a	0.0103698615
87	0x3c92dd16	0.017927688
88	0xbc47d7cb	-0.012197445
89	0xbd8897a7	-0.066695504
90	0x3c9964b9	0.018724786
91	0xbd2a159b	-0.04152451
92	0xbc195477	-0.009358517
93	0xbc1ab63e	-0.009442864
94	0x3c80d827	0.01572807
95	0xbc07462b	-0.008256475
96	0x3c090635	0.008363296
97	0x3d371f59	0.04470763
98	0xbb4486e0	-0.0029987618
99	0xbce39881	-0.02778268
100	0xbc8fda6a	-0.017560203
101	0xbc0bbfbe	-0.008529602
102	0xbb82379b	-0.003973914
103	0x3cbe8fc0	0.023261905
104	0x3caf757e	0.02141833
105	0xbc19500c	-0.009357464
106	0xbc528dcb	-0.012851189
107	0xbc106211	-0.008812443
108	0x3cc3f840	0.023922086
109	0x3a905857	0.0011012655
110	0xbadba8b7	-0.0016758655
111	0xbd5564cc	-0.05209808
112	0x3cf8f59f	0.030390559
113	0x3d46c684	0.048529163
114	0xbc63505e	-0.0138741415
115	0xbb106a7c	-0.0022036126
116	0xbcf28242	-0.029603127
117	0x3cf261a2	0.02958757
118	0x3c7f889b	0.015596534
119	0xbc4479ce	-0.011991931
120	0x3c00b9d0	0.007856801
121	0xbd295c9b	-0.04134808
122	0x3c838cb5	0.016058305
123	0xbd132840	-0.035927057
124	0xbc4e4358	-0.012589298
125	0x3bcb284c	0.006199872
126	0xbcf9de8f	-0.030501632
127	0x3d1b2650	0.037878335
128	0xbc3de605	-0.011590485
129	0x3cf7f141	0.030266406
130	0x3c463345	0.012097185
131	0xbb9a0dae	-0.004701338
132	0x3c2fcdda	0.010730231
133	0x3c0d9345	0.008641069
134	0xbd0be974	-0.034158185
135	0xbce32f94	-0.027732648
136	0xbd10b1b4	-0.03532572
137	0xbcbec9b6	-0.023289543
138	0xbbff92a9	-0.0077994657
139	0x3a09a72c	0.0005251046
140	0xbc127f8a	-0.0089415405
141	0xbc49cbb2	-0.012316631
142	0x3bf0295d	0.0073291496
143	0xbc4e022d	-0.012573761
144	0x3c26f0b7	0.010189227
145	0xbb2624a6	-0.0025351434
146	0x3ca2182d	0.019786919
147	0x3b094d61	0.0020950662
148	0xbd068079	-0.032837365
149	0x3cd7d50f	0.026346711
150	0xbcde90f8	-0.027168736
151	0xbb445044	-0.0029955069
152	0xbc86d59d	-0.01645928
153	0xbcb78792	-0.022403512
154	0x3c7e27bc	0.015512403
155	0xbcd3d65d	-0.025859052
156	0x3d54b190	0.05192715
157	0x3ce39ec3	0.027785664
158	0x3c8cfe9d	0.017211253
159	0xbca6d8a8	-0.020366982
160	0x3caa8266	0.020814132
161	0xbb93a796	-0.004506062
162	0xbc0a579f	-0.008443742
163	0xbca68eac	-0.020331703
164	0xbca2647a	-0.019823302
165	0x3ae2b424	0.0017296118
166	0xbc23df4b	-0.010001968
167	0xbbd4f3d0	-0.0064987913
168	0x3ccb16ef	0.024791209
169	0xbca1673a	-0.019702543
170	0x3cbfe5cc	0.023425005
171	0xbb983b2d	-0.004645726
172	0xbcd37192	-0.02581099
173	0x3cbacd0b	0.02280285
174	0x3d186698	0.037207216
175	0xbb805332	-0.0039161677
176	0x3c1384f1	0.009003864
177	0xbbbefcce	-0.0058284765
178	0xbbf43db1	-0.0074536433
179	0x3ab4a3c9	0.0013781722
180	0x3c8c3ae1	0.01711792
181	0x3c6181fc	0.013763901
182	0xbcdd06e9	-0.026980834
183	0xbc80a508	-0.015703693
184	0xbc0823d3	-0.008309322
185	0xbc185b05	-0.0092990445
186	0x3c740322	0.014893325
187	0xbc587b0b	-0.0132129295
188	0x39c8aa47	0.0003827384
189	0xbc89e61e	-0.016833361
190	0x3c217c4c	0.009856295
191	0x3c2a28de	0.01038572
192	0x3d182898	0.03714809
193	0xbc35837a	-0.01107871
194	0x3d1127e3	0.03543843
195	0x3cc13520	0.023584902
196	0xbbb9e635	-0.005673195
197	0x3b73e6d9	0.0037216453
198	0xbbfe1e49	-0.007755075
199	0xb9c05a83	-0.0003668853
200	0xbc34b103	-0.011028531
201	0x3cb6b8a8	0.022304848
202	0x3cfab800	0.030605316
203	0xbccf0fc3	-0.02527607
204	0x3cb916c5	0.022593865
205	0x3cb521fc	0.022110932
206	0xbd01766c	-0.031607077
207	0x3c1b204e	0.009468151
208	0xbcf81c1f	-0.030286847
209	0xbc57c909	-0.013170489
210	0xbce3a273	-0.027787423
211	0x3c84c962	0.016209308
212	0x3cbc5514	0.022989787
213	0xbc226b92	-0.009913342
214	0x3d94f30c	0.0727292
215	0xbc133fb5	-0.008987357
216	0xbd6357f8	-0.055503815
217	0x3cd28f4a	0.025703091
218	0x3d0063e3	0.03134526
219	0x393e232e	0.00018132917
220	0x3cc1cef3	0.023658251
221	0x3bb8ebef	0.00564336
222	0x3bd54bef	0.006509296
223	0x3d0eb306	0.0348387
224	0x3c1e0a47	0.009646005
225	0x3cbda406	0.023149502
226	0x3cdd5a2a	0.027020533
227	0xbbfa306e	-0.007635168
228	0x3d24c747	0.04022911
229	0xbcf544fc	-0.02994012
230	0xbccc0ad5	-0.024907509
231	0x3ceeb392	0.02913836
232	0xbca2fc73	-0.019895768
233	0xbb3752bb	-0.0027972895
234	0x3d3b285c	0.045692787
235	0xbbb02a53	-0.005376139
236	0x3d3f92df	0.046770927
237	0x3c8d450b	0.017244836
238	0xbc52538b	-0.012837301
239	0xbd096f5a	-0.03355346
240	0x3c9631f3	0.018334365
241	0x3ce18ad5	0.02753202
242	0xbcbf48a4	-0.023350067
243	0x3d03040a	0.031986274
244	0x3c579dc4	0.013160173
245	0x3cce6ca2	0.025198285
246	0x3ab6b011	0.001393797
247	0xbc925b3e	-0.017865773
248	0x3c36b4c3	0.011151495
249	0xbd590008	-0.052978545
250	0xbace0c7e	-0.0015720276
251	0x3a6cdabf	0.0009035281
252	0xbd137ffb	-0.036010724
253	0xbcb44ec3	-0.022010213
254	0xbcf696a2	-0.030101124
255	0xbc25983d	-0.010107097
