topic_modeling/bert_topic/results/dep_all_words/multi-mpnet/my_model/topic_embeddings.safetensors (safetensors, 6232 bytes, 1 tensors)

topic_embeddings f4 [2, 768]
-0.04130118 -0.30355215 -0.29163295 -0.07203365 0.34844866 -0.03437482 0.08880215 0.076937236
-0.05096321 0.10477521 -0.015180295 0.14745732 -0.26091695 -0.07633743 -0.18179235 -0.06742604
-0.13073711 0.21860242 0.07165762 -0.15011314 -0.2206928 0.03107963 0.009847253 0.15983786
-0.024447411 -0.23506378 0.18158066 0.24271804 -0.19139007 0.040051952 -0.019296093 0.14657846
-0.13302803 -0.028835855 -0.00010314134 -0.16102263 0.12681691 0.12624232 -0.07928397 -0.04530286
-0.0033170562 -0.07531802 0.08790714 -0.09583332 -0.13349475 -0.22475424 0.0054994123 -0.039468218
0.35335818 -0.062157027 0.3141507 0.15242575 -0.21967971 -0.13007332 0.12652051 0.058260776
-0.06376474 0.03585873 0.32869464 -0.26685312 -0.08910864 -0.012110747 -0.22877192 0.032278705
0.104544416 -0.22476812 0.41137055 -0.090689614 0.21777602 0.09353819 -0.07114979 0.103638366
-0.0056376504 -0.058542475 0.15263215 -0.18492644 0.16597317 0.0800518 0.01284567 0.18551257
0.03900806 0.37552372 -0.051169172 0.09259477 -0.077536106 -0.061819654 -0.11917322 -0.22069514
0.22231375 -0.06712443 -0.18418908 0.076316416 0.066927575 0.03828594 0.030255917 -0.1441904
0.087883085 0.028303748 -0.30558017 -0.04605481 -0.088655375 0.21563286 -0.17927009 -0.03830933
0.22715811 -0.21871431 0.2601069 -0.21025163 -0.07359626 0.15617372 0.08201032 0.1248435
-0.17741644 -0.03498102 -0.033677716 -0.047040064 -0.069985196 -0.04182429 -0.44716954 -0.027862554
-0.25020862 0.009479026 -0.017770562 0.2371841 0.14503041 0.24200042 -0.12280239 -0.01935392
0.022773027 -0.23150927 -0.24627067 -0.049946688 -0.25063172 -0.20833094 0.0004731933 0.1775828
0.2132621 0.05108839 -0.14355537 -0.11466115 0.2712629 -0.13593698 0.06354987 -0.04555576
-0.20730707 0.06124159 0.15822293 -0.2193587 0.06822552 0.02093435 0.25725573 -0.059604265
-0.14166765 0.2669036 -0.022607863 0.039687637 0.28588462 -0.077362634 -0.13012743 0.05997805
0.15706374 -0.029758615 0.08216101 -0.08825848 -0.021457557 0.025512176 0.042734716 -0.22898154
-0.13465376 -0.11602727 -0.006692317 0.017507903 0.068055004 0.3876758 0.018359914 -0.17313811
0.13674961 0.01793239 -0.2557947 0.0620378 -0.07617159 0.058842897 0.027938128 -0.03332689
0.25101793 0.009467519 0.25962147 0.22352192 0.049891997 -0.24060239 -0.34782508 -0.089632414
-0.037951097 0.1788576 0.11358812 -0.08831631 0.051556963 0.015547949 0.2886376 0.03692873
-0.26726276 -0.018979773 0.16465938 -0.0401656 -0.041806888 -0.13204665 0.08176091 -0.16854265
0.16927706 0.17628364 0.095068425 -0.011803572 -0.21125464 -0.13847925 -0.029882062 0.07599043
0.27196658 -0.007877519 -0.31663713 -0.0138093205 -0.21857479 0.014811094 -0.18429191 -0.07269055
0.18024087 0.052136414 0.10923064 -0.1627785 0.13266177 0.20367606 0.08674439 0.18218982
0.24785252 -0.1116852 -0.21186113 0.14925343 0.20961203 0.1412306 -0.16632797 -0.19696146
0.13623905 0.10240271 -0.023755264 -0.00011543803 0.2091162 0.4016845 -0.071826965 0.07532288
-0.17574495 -0.11038055 0.15844302 -0.029393336 -0.016574422 -0.13923964 0.39844036 -0.054360237
00000000: 6d2b 29bd 306b 9bbe ea50 95be 6186 93bd
00000010: dd67 b23e 9ccc 0cbd e7dd b53d 4591 9d3d
00000020: cdbe 50bd 6394 d63d c6b6 78bc 0dff 163e
00000030: e896 85be cc56 9cbd c627 3abe aa16 8abd
00000040: f3df 05be 50d9 5f3e 3bc1 923d 42b7 19be
00000050: 4bfd 61be b59a fe3c 5f56 213c 89ac 233e
00000060: f045 c8bc 8fb4 70be 48f0 393e 148b 783e
00000070: c2fb 43be 840d 243d d712 9ebc aa18 163e
00000080: 8038 08be 2c39 ecbc 964d d8b8 1ee3 24be
00000090: 4bdc 013e ab45 013e a25f a2bd 7e8f 39bd
000000a0: f862 59bb 5640 9abd a908 b43d 4244 c4bd
000000b0: d9b2 08be fa25 66be 6a34 b43b 6da9 21bd
000000c0: 5deb b43e 5e98 7ebd 5cd8 a03e 7f15 1c3e
000000d0: b8f3 60be f131 05be 988e 013e daa2 6e3d
000000e0: 1797 82bd 9be0 123d aa4a a83e f9a0 88be
000000f0: 977e b6bd 286c 46bc 3043 6abe ad36 043d
00000100: 621b d63d 9d29 66be 299f d23e 7abb b9bd
00000110: ad00 5f3e f390 bf3d fbb6 91bd 5a40 d43d
00000120: 0abc b8bb 3cca 6fbd 9a4b 1c3e 5b5d 3dbe
00000130: dff4 293e 33f2 a33d a576 523c 02f7 3d3e
00000140: eac6 1f3d a544 c03e c496 51bd 54a2 bd3d
00000150: 40cb 9ebd 9b36 7dbd 1711 f4bd e8fd 61be
00000160: 37a6 633e 8878 89bd 109c 3cbe c84b 9c3d
00000170: 5311 893d b8d1 1c3d 42db f73c a6a6 13be
00000180: 0cfc b33d 43dd e73c 0175 9cbe f8a3 3cbd
00000190: f390 b5bd dcce 5c3e 9492 37be 3eea 1cbd
000001a0: 239c 683e a5f6 5fbe bb2c 853e 344c 57be
000001b0: a3b9 96bd 01ec 1f3e 07f5 a73d f3ad ff3d
000001c0: a8ac 35be 4248 0fbd a5f1 09bd 15ad 40bd
000001d0: 6654 8fbd f24f 2bbd 68f3 e4be 0340 e4bc
000001e0: 581b 80be eb4d 1b3c 9293 91bc 64e0 723e
000001f0: da82 143e f5ce 773e d27f fbbd 1d8c 9ebc
00000200: 808e ba3c c410 6dbe 612e 7cbe e694 4cbd
00000210: cd52 80be b554 55be ee16 f839 44d8 353e
00000220: 6161 5a3e 0f42 513d 2e00 13be 77d3 eabd
00000230: f9e2 8a3e 1033 0bbe 6f26 823d ad98 3abd
00000240: 4e48 54be 76d8 7a3d 3105 223e 919f 60be
00000250: d2b9 8b3d 847e ab3c 06b7 833e 9a23 74bd
00000260: 5311 11be 97a7 883e 2034 b9bc 818f 223d
00000270: 785f 923e 4d70 9ebd 2040 05be 8bab 753d
00000280: 51d5 203e 57c8 f3bc 0844 a83d ddc0 b4bd
00000290: c2c7 afbc e9fe d03c 990a 2f3d 237a 6abe
000002a0: ade2 09be b59f edbd 394b dbbb bc6c 8f3c
000002b0: 6c60 8b3d 717d c63e 8867 963c 1e4b 31be
000002c0: 1708 0c3e f3e6 923c 86f7 82be 591b 7e3d
000002d0: daff 9bbd 4005 713d 80de e43c c781 08bd
000002e0: 6c85 803e a71d 1b3c 1bed 843e eee2 643e
000002f0: 8d5b 4c3d 7960 76be 2116 b2be 3391 b7bd
00000300: 9c72 1bbd 7226 373e e3a0 e83d 2edf b4bd
00000310: 652d 533d d3bc 7e3c 4fc8 933e 9442 173d
00000320: aad6 88be 787b 9bbc 789c 283e af84 24bd
00000330: b33d 2bbd 3d37 07be 4472 a73d 7296 2cbe
00000340: f756 2d3e b383 343e 3cb3 c23d c563 41bc
00000350: 2353 58be 81cd 0dbe 3acb f4bc dfa0 9b3d
00000360: 343f 8b3e b610 01bc 431e a2be 7d40 62bc
00000370: 12d2 5fbe 3baa 723c 05b7 3cbe c8de 94bd
00000380: 1091 383e fe8c 553d 50b4 df3d 68af 26be
00000390: 7dd8 073e 7590 503e 0ba7 b13d f88f 3a3e
000003a0: 0dcd 7d3e 36bb e4bd 20f2 58be e4d5 183e
000003b0: 89a4 563e c19e 103e e151 2abe 44b0 49be
000003c0: 4082 0b3e 83b8 d13d 669a c2bc 5217 f2b8
000003d0: 8f22 563e 97a9 cd3e 041a 93bd e242 9a3d
000003e0: 7cf6 33be 330f e2bd e33e 223e 4bca f0bc
000003f0: 15c7 87bc d694 0ebe 6000 cc3e d7a8 5ebd
