topic_modeling/bert_topic/results/dep_all_phrases/multi-mpnet/my_model/topic_embeddings.safetensors (safetensors, 64600 bytes, 1 tensors)

topic_embeddings f4 [21, 768]
000000 66 40 11 bd d8 fe 81 be 15 6e 8f be 8c e6 7f bd
       -0.035461806 -0.25389743 -0.28013673 -0.062475726
000010 42 13 b9 3e b4 0b 3d bd cf d6 17 3c 2f 36 ec 3d
       0.36147505 -0.04615374 0.009267523 0.11533772
000020 94 88 40 3b bc 04 28 3e 84 78 39 3d be f2 00 3e
       0.0029378282 0.16408056 0.04528095 0.12592599
000030 4d f8 8b be 94 7c a8 bd ff 19 40 be 12 62 52 bd
       -0.27337876 -0.082268864 -0.18759917 -0.05136306
000040 e1 37 fd bd ef 85 07 3e e5 24 1e 3d 3c d7 1e be
       -0.12364174 0.13234685 0.038609404 -0.15511793
000050 d2 9e 6c be 9d 54 ec 3b e5 1e 70 3d 79 95 1d 3e
       -0.2310746 0.007212235 0.058623213 0.1538905
000060 35 70 41 bd 3d af 7a be 4e 54 71 3e d8 a1 7a 3e
       -0.04722615 -0.2448091 0.23567316 0.24475801
000070 f3 a1 28 be fc c0 6f 3d f0 72 85 bd 78 a1 b2 3d
       -0.16468029 0.058533654 -0.06516063 0.08722204
000080 d6 96 5b bd 82 8b 78 bd bc 54 d3 b8 54 2a 0b be
       -0.053610645 -0.06067992 -0.00010077047 -0.13590366
000090 45 13 cf 3d b0 ff 2b 3e e2 d9 17 be 9f ce 91 bd
       0.10111097 0.16796756 -0.1482921 -0.07119488
0000a0 65 b3 ed bc 60 95 db bd d7 8d 41 3e c7 6b 4a bd
       -0.029016206 -0.107218504 0.18901764 -0.04941919
0000b0 a7 77 19 be 19 64 32 be 01 f1 29 bd 9f 61 ec ba
       -0.1498705 -0.17420997 -0.041489605 -0.0018034464
0000c0 cb b9 bf 3e 81 06 de 3b 74 72 af 3e 1d 62 cb 3d
       0.37446436 0.0067756777 0.34267008 0.09930823
0000d0 14 93 4a be 8e 54 41 be 1c c6 23 3e ec 49 d9 3d
       -0.19782668 -0.18879911 0.15993541 0.106098026
0000e0 5b 7b 1c bd 49 84 81 3d 66 f1 8f 3e f5 79 8f be
       -0.03820358 0.063240595 0.2811386 -0.28022733
0000f0 12 3a 0b be 1a 0f 9b bd 16 75 6d be c4 37 da 3d
       -0.13596371 -0.0757124 -0.23189196 0.10655168
000100 6c d7 07 3e e0 82 82 be 37 c7 ca 3e 28 0d 45 be
       0.1326577 -0.25490475 0.39605114 -0.192433
000110 74 5d 62 3e ec f4 82 3d 54 72 65 bd ae 13 e0 3d
       0.22105962 0.063943714 -0.056017235 0.109412536
000120 29 cb 8e bc 4b c3 6c bd 28 77 0c 3e 03 fe 30 be
       -0.017430859 -0.057803433 0.1371733 -0.17284398
000130 13 f6 21 3e 2f bb 9c 3d c8 41 28 3d 70 2b 60 3e
       0.15816526 0.0765289 0.04107836 0.2189157
000140 91 62 46 3d 58 cf c8 3e 1b 04 b1 3c 8e 0a 1c bb
       0.048433844 0.3922069 0.021608403 -0.0023810002
000150 78 04 61 bd 31 8a 88 bd da fa ed bd f4 9d 51 be
       -0.054935902 -0.06666983 -0.11620112 -0.2047041
000160 4b 2f 7c 3e 61 63 9e bd b5 7b 6e be 23 60 ea 3d
       0.24627416 -0.07733799 -0.23289378 0.11444118
000170 bc 1f 32 3c ee e1 07 3d db cc 8e bd 74 20 12 be
       0.010871824 0.033174448 -0.06972667 -0.14270192
000180 d8 39 f8 3d e0 07 9b 3d 1f 14 94 be ef dc 01 bc
       0.12120408 0.075698614 -0.289216 -0.00792621
000190 aa 25 22 bd 13 33 78 3e 71 d9 27 be 58 8d c8 bd
       -0.0395867 0.24238233 -0.16391541 -0.09792584
0001a0 75 92 70 3e 6e b0 62 be f0 56 86 3e a5 0b 84 be
       0.23493369 -0.22137615 0.26238203 -0.25790134
0001b0 c9 70 f4 bd 5b 22 ce 3d 8b 8a e3 3d e5 bf 0b 3e
       -0.119355746 0.100651465 0.11110409 0.1364742
0001c0 37 cc 0f be 3b 50 0f bd f4 ec 40 bd 71 d6 45 bd
       -0.14042746 -0.034988623 -0.047100976 -0.04830021
0001d0 61 7d bd bd 6a 45 cb bc 31 54 dd be d3 d6 8b 3c
       -0.0925243 -0.024813373 -0.43228295 0.01707021
0001e0 ad 96 81 be 6f a3 24 3c e9 4c 01 3d dd d2 69 3e
       -0.2531027 0.010048731 0.031567488 0.22834344
0001f0 d7 f7 31 3e 2e a0 78 3e 9a 0c 19 be de 2d 9c bd
       0.173797 0.24279854 -0.14946213 -0.07625936
000200 12 02 35 bc dd 3e 28 be 98 54 86 be e1 f0 cd bc
       -0.011047857 -0.1643023 -0.26236415 -0.025139274
000210 65 cc 99 be e7 e8 41 be 6e 60 41 3d 3a 70 4f 3e
       -0.30038753 -0.18936501 0.047211103 0.20257655
000220 58 80 46 3e a1 5a d4 3d 41 3a 48 be 50 6d 3a be
       0.19384897 0.103688486 -0.19553472 -0.18205762
000230 b8 ca 30 3e fc 04 0d be 8e d3 41 3d 4b d5 26 bd
       0.17264831 -0.13771433 0.047320895 -0.040730756
000240 48 7f 0e be 10 1a b2 3d 0a 48 36 3e cf 8e 28 be
       -0.13915741 0.08696377 0.17800918 -0.16460727
000250 ce 4f 85 3d ec 7d 93 bc de 4d 55 3e b2 ec 18 bd
       0.06509362 -0.01800438 0.20830485 -0.037335105
000260 12 16 f5 bd 67 79 91 3e 79 be 24 3a 96 89 e5 3d
       -0.119671 0.28412935 0.0006284486 0.11207883
000270 f0 cb 88 3e 5d 6b 26 be 94 d4 2c be c0 63 04 3d
       0.26718092 -0.16251893 -0.16877967 0.03232169
000280 7f 36 29 3e 42 c9 08 bc 6f 10 8c 3d 3a 40 9a bd
       0.16524695 -0.008348765 0.06839072 -0.075317815
000290 32 2e 02 3a 5e e0 4f 3d 1c 0a 8b 3d b0 64 4f be
       0.000496599 0.050751083 0.067890376 -0.20253253
0002a0 40 79 12 be 16 01 ef bd 45 c4 30 bd 53 28 99 bc
       -0.14304066 -0.11670129 -0.043155927 -0.018695986
0002b0 b3 4c a6 3d 45 d4 ea 3e 32 bd 50 3d 43 d4 5b be
       0.08120098 0.45865074 0.05096168 -0.2146769
0002c0 11 b5 27 3e d9 8b 9c 3d 85 ae a4 be b4 01 82 3c
       0.16377665 0.07643861 -0.32164398 0.015869953
0002d0 9b 7d be bd 15 82 8d 3d fc fe 0c 3d 12 25 aa bd
       -0.09301301 0.06909577 0.03442286 -0.08307852
0002e0 1b de 8e 3e fa af 7d 3d 48 aa 8e 3e 8a d1 20 3e
       0.27903828 0.061935402 0.2786429 0.15704933
0002f0 61 de 3f 3d 40 51 67 be 48 ed b5 be 27 c9 e4 bd
       0.046842936 -0.22589588 -0.35532594 -0.11171179
000300 97 28 06 be 06 f1 7c 3e 83 c6 97 3d d9 6e fb bd
       -0.13101421 0.24701318 0.0741091 -0.12277002
000310 48 55 18 3e 01 11 a9 bb aa 5c 5d 3e 36 a5 ee 3c
       0.14876282 -0.0051594977 0.2161738 0.029131513
000320 3f 32 95 be ba e9 eb bb 90 8e 16 3e 73 07 97 bd
       -0.29139897 -0.0071994932 0.14702821 -0.07374468
000330 a5 b5 14 bd a4 ee 06 be 54 3a 99 bc 78 a6 d9 bd
       -0.036306042 -0.13176972 -0.01870457 -0.106274545
000340 b0 f7 50 3e 60 ee ce 3d a8 dc 60 3d d9 f7 1b 3d
       0.20406985 0.1010406 0.054897934 0.038078163
000350 b0 29 3e be ff 4b 87 bd 4e 96 84 bc a9 84 af 3d
       -0.1857059 -0.06606292 -0.016184952 0.08570225
000360 41 b7 8e 3e 76 b8 4d bd 91 f9 78 be 2c 16 50 bd
       0.27874187 -0.050224744 -0.24313952 -0.050802395
000370 1f 84 89 be 1d aa fc 3c c8 02 85 be 48 4f 24 bd
       -0.26858613 0.030842835 -0.25978684 -0.04011467
000380 6e 19 1d 3e 52 c9 9a 3c 4c 26 fa 3d 97 d1 30 be
       0.15341732 0.018894825 0.12214336 -0.17267452
000390 11 5d 4d 3e 68 b2 43 3e 83 ea 97 3d 45 d4 6a 3e
       0.20055033 0.19111025 0.074177764 0.22932537
0003a0 fe 09 68 3e 8d a4 0f be 8b 63 35 be d9 b2 d4 3d
       0.22660062 -0.14027615 -0.17713754 0.10385675
0003b0 8b 5a 2c 3e f3 be f8 3d 73 89 24 be e3 4a 2e be
       0.16831414 0.12145796 -0.16068058 -0.17020755
0003c0 50 5b 23 3e bd c7 f6 3d b0 6b d1 bc bf ef 99 3d
       0.15952802 0.12049816 -0.025564045 0.07516431
0003d0 7d 5b 04 3e 5d 7e a6 3e 2e 75 3f bc bd f9 cd 3d
       0.12925525 0.32518283 -0.011685653 0.100573994
0003e0 01 61 23 be 4e bb 2b bd f9 7e 4c 3e 1e 40 54 bd
       -0.15954973 -0.041926675 0.19970311 -0.05181896
0003f0 87 3e 72 bc 8a 52 1f be c3 7a d7 3e 8e a7 41 bd
       -0.0147854155 -0.1555883 0.42085847 -0.047278933
