topic_modeling/bert_topic/results/wor_all_phrases/multi-mpnet/my_model/topic_embeddings.safetensors (safetensors, 6232 bytes, 1 tensors)

topic_embeddings f4 [2, 768]
-0.10075465 -0.34736702 -0.32005218 -0.07049646 0.22776687 -0.034099337 -0.007559902 0.14770769
-0.06607236 0.14599901 0.026144607 -0.028048597 -0.31269956 -0.0440748 -0.24276507 0.08081247
-0.03781814 -0.01526677 0.16743799 -0.19875853 -0.21831304 -0.06073959 0.009587704 0.19319455
-0.033863973 -0.25011054 0.19255403 0.27580714 -0.04651584 -0.011385655 -0.094100975 0.13237923
-0.014663488 -0.0166693 -0.00010210701 -0.13270167 0.064647414 0.116932996 -0.073492095 -0.0027055934
-0.011777783 -0.152798 0.05336513 -0.13508137 -0.22337797 -0.18443754 -0.050309002 -0.017773315
0.36545002 0.083529375 0.3294969 0.113236904 -0.19635336 -0.09247732 0.11990808 -0.01849925
-0.013319132 -0.07402305 0.30262956 -0.22008546 -0.096796975 -0.040920693 -0.2232664 0.049251635
0.057271868 -0.24991274 0.40668774 -0.23642874 0.18694605 0.109538004 -0.12008419 0.085179724
0.01815355 -0.13593552 0.13491924 0.011706247 0.20379455 0.060241736 0.015730588 0.15422003
0.06295895 0.3211824 0.002941983 0.029967045 -0.05673124 0.11311977 -0.14219989 -0.17092775
0.23770402 -0.1431357 -0.15912186 0.032613162 0.073400885 0.06704539 -0.028996987 -0.130666
0.05356266 -0.019464696 -0.30833524 -0.0033476863 -0.1960455 0.16795197 -0.10704212 -0.097857475
0.29005098 -0.23946875 0.0796567 -0.115469426 -0.0687481 0.24148405 0.13292378 0.23752353
-0.123584606 -0.048092432 -0.037360698 -0.043858726 -0.07112511 -0.059051998 -0.29161966 0.1244386
-0.25980198 0.012332093 0.026889512 0.26194024 0.17071727 0.08745389 -0.07767431 -0.052037735
0.04264874 -0.24068436 -0.27079636 -0.06195305 -0.19666864 -0.16344982 -0.028862305 0.091873944
0.112206005 0.11872601 -0.06396998 -0.10794889 0.048158213 -0.13072824 0.10553248 0.11193381
-0.15890181 0.060622096 0.124128275 -0.027202263 0.06550964 -0.009696256 0.18555115 -0.035647597
-0.0035399937 0.2727653 -0.10467712 0.06185856 0.33684 -0.14655319 0.019449363 -0.017745642
0.16982979 0.021250024 0.07901834 -0.07105044 -0.040790796 0.083452 0.18771093 -0.09585673
-0.043460544 -0.15418376 -0.08843113 -0.026452735 0.09600978 0.38419557 0.05139276 -0.1677537
0.044062793 -0.06719564 -0.30424398 0.0405932 -0.093687944 0.1322474 0.08424765 -0.08429013
0.14434089 -0.0033095386 0.11521569 0.13784657 -0.039523758 -0.122193806 -0.3480523 -0.15793672
-0.26005197 0.22436337 0.015828215 -0.14488678 0.06274121 -0.042705193 0.19132775 -0.005292866
-0.251506 0.0030156781 0.076784074 -0.06803208 -0.0970038 -0.07713845 -0.05641282 -0.1780251
0.22269747 0.16602732 0.04982044 0.063912936 -0.16267535 -0.09157027 0.000105754916 0.10098309
0.28845343 -0.054715436 -0.15348062 0.09187618 -0.25195545 0.121768005 -0.24300775 -0.018605892
0.19074154 -0.040188376 0.07052198 -0.10895219 0.13215409 0.12760201 0.055792693 0.16130358
0.17379598 -0.10551642 -0.1652377 0.10460742 0.08514167 0.24460462 -0.11746422 -0.025836054
0.12583701 -0.06784611 -0.11153485 0.057626747 0.072425365 0.484914 -0.025351599 0.14910793
-0.102110595 -0.05662518 0.1821409 -0.027610194 -0.019019864 -0.08189134 0.36314625 -0.043944452
00000000: 7458 cebd 17da b1be e1dd a3be 7360 90bd
00000010: b83b 693e bfab 0bbd 0eb9 f7bb af40 173e
00000020: f250 87bd c480 153e 372d d63c 2cc6 e5bc
00000030: 281a a0be c787 34bd 6897 78be 0281 a53d
00000040: 32e7 1abd 7921 7abc dd74 2b3e 5b87 4bbe
00000050: 748d 5fbe 14ca 78bd bf15 1d3c cbd4 453e
00000060: f3b4 0abd 7d0e 80be e22c 453e 9836 8d3e
00000070: 6587 3ebd e68a 3abc 03b8 c0bd 6c8e 073e
00000080: 203f 70bc 0e8e 88bc 4922 d6b8 f2e2 07be
00000090: dd65 843d 917a ef3d 0683 96bd 5350 31bb
000000a0: 9af7 40bc 1477 1cbe 6595 5a3d c552 0abe
000000b0: 32bd 64be 32dd 3cbe d010 4ebd 5899 91bc
000000c0: 441c bb3e 7311 ab3d d1b3 a83e c0e8 e73d
000000d0: db10 49be c064 bdbd 5e92 f53d bd8b 97bc
000000e0: 7d38 5abc 6699 97bd 43f2 9a3e 155e 61be
000000f0: 7e3d c6bd 759c 27bd f29f 64be 15bc 493d
00000100: e895 6a3d 20e9 7fbe 6039 d03e 601a 72be
00000110: c96e 3f3e 7655 e03d b3ee f5bd b572 ae3d
00000120: c1b6 943c ae32 0bbe 4528 0a3e 8fcb 3f3c
00000130: 85af 503e 0ac0 763d 6fdd 803c dbeb 1d3e
00000140: 9ff0 803d 0572 a43e 49ce 403b 737d f53c
00000150: 045f 68bd 57ab e73d d99c 11be af07 2fbe
00000160: af68 733e 2a92 12be d7f0 22be 6195 053d
00000170: 3453 963d 184f 893d 178b edbc 4fcd 05be
00000180: 8564 5b3d 6d74 9fbc 1ede 9dbe db64 5bbb
00000190: 27c0 48be 9afb 2b3e e638 dbbd 8069 c8bd
000001a0: 9081 943e 4c37 75be 0d23 a33d 3c7b ecbd
000001b0: cecb 8cbd 9847 773e 2c1d 083e 5e39 733e
000001c0: ed19 fdbd 92fc 44bd 8807 19bd 35a5 33bd
000001d0: 0baa 91bd 82e0 71bd 2c4f 95be aad9 fe3d
000001e0: c404 85be 8c0c 4a3c 6547 dc3c 081d 863e
000001f0: 82d0 2e3e 061b b33d b513 9fbd 8525 55bd
00000200: 72b0 2e3d f675 76be d2a5 8abe 7bc2 7dbd
00000210: 8163 49be 645f 27be a470 ecbc 6828 bc3d
00000220: 43cc e53d 9f26 f33d b102 83bd 4f14 ddbd
00000230: 8c41 453d a0dd 05be 6a21 d83d 8e3d e53d
00000240: 28b7 22be e04e 783d f736 fe3d 48d7 debc
00000250: eb29 863d 0cdd 1ebc 1f01 3e3e 3703 12bd
00000260: 3dff 67bb e5a7 8b3e f560 d6bd 675f 7d3d
00000270: 4b76 ac3e 0a12 16be 4554 9f3c 4f5f 91bc
00000280: dce7 2d3e 8814 ae3c 5ed4 a13d e582 91bd
00000290: 4014 27bd e2e8 aa3d 4b37 403e 8950 c4bd
000002a0: af03 32bd 59e2 1dbe 611b b5bd 68b3 d8bc
000002b0: c7a0 c43d 48b5 c43e 3781 523d a0c7 2bbe
000002c0: 307b 343d de9d 89bd dec5 9bbe 0e45 263d
000002d0: 77df bfbd dd6b 073e 088a ac3d 4ea0 acbd
000002e0: 19ce 133e d8e4 58bb 34f6 eb3d a727 0d3e
000002f0: aae3 21bd bf40 fabd e933 b2be 2aba 21be
00000300: 8825 85be 83bf 653e 2caa 813c 335d 14be
00000310: 777e 803d a4eb 2ebd 6ceb 433e c76f adbb
00000320: 65c5 80be afa2 453b f840 9d3d 6754 8bbd
00000330: eea9 c6bd c4fa 9dbd 2111 67bd 364c 36be
00000340: ce0a 643e 1103 2a3e 8510 4c3d c9e4 823d
00000350: 5e94 26be 3289 bbbd bdc8 dd38 39d0 ce3d
00000360: 2bb0 933e 4b1d 60bd 062a 1dbe 9429 bc3d
00000370: 4e00 81be 8161 f93d 06d7 78be 626b 98bc
00000380: c051 433e 919c 24bd d46d 903d 5322 dfbd
00000390: 6753 073e 1aaa 023e e186 643d c42c 253e
000003a0: 93f7 313e fe18 d8bd 1234 29be 6a3c d63d
000003b0: c25e ae3d a279 7a3e 1591 f0bd 22a6 d3bc
000003c0: 6bdb 003e e7f2 8abd 626c e4bd 060a 6c3d
000003d0: c053 943d a646 f83e 28ae cfbc c0af 183e
000003e0: 5c1f d1bd ceef 67bd 2583 3a3e c62e e2bc
000003f0: 8ccf 9bbc a6b6 a7bd 4eee b93e 19ff 33bd
