topic_modeling/bert_topic/results/wor_all_words/multi-mpnet/my_model/topic_embeddings.safetensors (safetensors, 107608 bytes, 1 tensors)

topic_embeddings f4 [35, 768]
00000000: 222c 88bd 3845 dcbe 0d7b a5be 1465 1dbd
00000010: f971 853e 33f9 d5bc e3e4 99bb 1fc6 d63d
00000020: ff37 f0bd 670c 0f3e 9aca d5bc 9211 7dbc
00000030: 7dbc adbe f9fb 38bd 6bef 86be 32c6 903d
00000040: 67b6 a4bd a948 433d 9569 573e f888 39be
00000050: 6d8b 3ebe 3e4b 64bd 83e2 24bb de8b 5f3e
00000060: 6846 403c e94d 8dbe fa0b 1d3e f353 883e
00000070: adbc a1bd 6e3d 24bd 5498 65bd 9762 303e
00000080: 0833 40bd 1b23 a9bc f186 dab8 80ef 0abe
00000090: 474c af3d 67d9 d93d e540 8bba 2658 86bc
000000a0: 79cf 5b3c a718 05be bd1a f93c 39a2 38be
000000b0: ba1f 78be 7e86 69be 4856 7ebc 1ad4 21bd
000000c0: 6e40 c43e 6dcb b23c 56bc 9f3e 3625 3c3e
000000d0: dd89 5ebe 787f 97bd e1f3 f93d ac87 48bd
000000e0: dd4d 51bd c265 00be 6d07 ac3e 6d33 53be
000000f0: e38e c0bd 07c2 78bd d1ff 5ebe 6839 8abb
00000100: 5c74 743d 6472 87be 92e5 e63e 0422 3abe
00000110: 490e 373e 6f09 043e 8bd9 ffbd 0daa c33d
00000120: e955 5e3d 7ba0 01be f477 073e 1dcd 573d
00000130: 8bc3 543e 4eaf a43d 10be e5bc 6de5 163e
00000140: c31f 0d3d e3f9 a73e a78a 1ebd 62b6 bf3d
00000150: 11c7 4fbd e0ed e63d 6b90 09be 254b 39be
00000160: 9bff 623e cdff 1cbe f830 2cbe 3bdc 773c
00000170: b7f4 b43d 1d71 803d dbbe f53c f457 02be
00000180: 2771 173d d71c 81bd cc72 a9be 159b 533c
00000190: 72ad 66be f6b8 273e 0bb7 f6bd 71f5 b4bd
000001a0: e7ef a23e 200b 72be 8032 e73d 0071 8ebd
000001b0: 07e2 8abd 59cf 973e b047 b93d 25f6 6f3e
000001c0: 89a0 25be 3866 53bd ff18 b539 9360 95bd
000001d0: 3632 d7bd def6 b0bc f8e5 a4be 8f35 c83d
000001e0: f14f 8bbe 9ea3 063d cdcb 5c3d 920c 903e
000001f0: 04ea 213e ccce 343d 95b3 f2bc 46c4 11bd
00000200: 4f78 763d a769 9ebe b7af 87be fee7 b5bd
00000210: 4d3d 4bbe 2398 56be a9a5 1dbd 63e5 5d3d
00000220: ba19 0f3e 6231 cd3d 142b 4cbd 517d 78bd
00000230: a390 c93d bd92 0cbe 6f9f ff3d 8099 9a3d
00000240: 3284 3bbe 92cf 6e3d 579a f33d b7e0 a3bd
00000250: cc86 583d 2e29 3b3b c83e 5f3e 6d53 17bd
00000260: e03c 1bbc b298 853e 213b e2bd 2809 653c
00000270: 383e ba3e 53fd c8bd 8d8e fc3b f37f e9bc
00000280: b5ba 383e 4301 fdba 2f38 f93d a560 b9bd
00000290: 9114 c2bb 5037 873d 1aef 593e eb60 19be
000002a0: 128c 2bbd 996f 3ebe bdff a2bd e16d 55bc
000002b0: 76e3 d73d 1246 b63e 2a5c 2bbc 6c29 c7bd
000002c0: 436c 5f3d 260c ecbd 9082 7bbe 132b 993d
000002d0: ed80 8cbd c85b 143e c212 9b3d 9414 8ebd
000002e0: 858f 173e 973e 46bc baef e63d a8e3 343e
000002f0: f06b 17bd 7dac 29be 2d6e b1be 4936 fcbd
00000300: 67c0 64be 85bf 4e3e 12da 693c a2b1 c4bd
00000310: 1be3 343d e983 80bd a6ca 863e 7a01 393c
00000320: f952 80be a93c b8bc 9c92 923d 82fa 1fbd
00000330: 4574 abbd bd32 adbd 2704 183d 2583 54be
00000340: 2be9 5d3e 9182 513e 1d96 833d e024 323d
00000350: 5d09 49be a044 02be 3638 53bc 8796 a33d
00000360: 5b03 913e 6035 bcbd 9a26 68be a778 d73d
00000370: 6709 6abe ffc1 ee3d 3886 54be 74a7 abbc
00000380: 38ba 643e 5359 81bd 24f7 863d 9c98 dabd
00000390: d523 e83d 330e 093e 23b3 903d f60a 123e
000003a0: b9e6 483e 57be 9dbd 3254 5cbe 292a 053e
000003b0: 736f f63d 1a39 713e e0ef 16be 860d d7bc
000003c0: 7c58 af3d 1cd0 cebd b448 edbd 3974 3f3c
000003d0: c2e2 313e 1284 083f a3a9 09bd e1d4 313e
000003e0: 138a acbd bf70 8ebd 6d5a 4f3e 505b c9bc
000003f0: 1da5 21bd 1bcf 7dbd 2bff d63e 3020 63bd
-0.06649043 -0.4302156 -0.32320443 -0.038426474 0.26063517 -0.026119804 -0.004696475 0.10487007
-0.117294304 0.13969575 -0.026097585 -0.015446084 -0.33932868 -0.045162175 -0.26354536 0.07069053
-0.08042603 0.047676716 0.2103637 -0.18118656 -0.18607874 -0.05573582 -0.0025159426 0.21830699
0.011735536 -0.27598503 0.153366 0.26626548 -0.07897315 -0.040097646 -0.056053475 0.17225109
-0.046923667 -0.020646622 -0.00010420185 -0.13567924 0.085594706 0.10637169 -0.0010624198 -0.016399454
0.013416165 -0.12997685 0.030408258 -0.18030633 -0.24230853 -0.22805211 -0.015523501 -0.039508916
0.38330406 0.021825517 0.31198376 0.1837357 -0.21732278 -0.073973596 0.12204719 -0.04895751
-0.051099647 -0.12538818 0.33599415 -0.20625086 -0.094022535 -0.060731914 -0.21777274 -0.004218269
0.05968128 -0.2645446 0.45097023 -0.18177038 0.17876543 0.12894224 -0.12492665 0.09553919
0.05428115 -0.12658875 0.13229352 0.052685846 0.20777719 0.08041249 -0.02804473 0.14735956
0.03445412 0.32807836 -0.038706448 0.09360959 -0.050726954 0.1127584 -0.13433997 -0.18095072
0.22167818 -0.15331955 -0.16815555 0.015128191 0.08835738 0.06271575 0.029998234 -0.12728864
0.036973145 -0.06304329 -0.33095396 0.012915392 -0.22527102 0.16379151 -0.120466314 -0.08835877
0.31823656 -0.23637056 0.11288929 -0.06955147 -0.067813925 0.2965038 0.090468764 0.2343374
-0.1617452 -0.051611155 0.00034541634 -0.07293811 -0.10507624 -0.02160209 -0.32206702 0.097758405
-0.27209428 0.03287088 0.053905297 0.2813459 0.15811926 0.04414253 -0.029626647 -0.03558757
0.06017333 -0.3093998 -0.26501247 -0.088821396 -0.19847603 -0.20956473 -0.038488064 0.05417384
0.13974658 0.10019185 -0.04984577 -0.060666386 0.098420404 -0.13727851 0.124815814 0.07548809
-0.18312147 0.058303423 0.11894672 -0.08001845 0.052862927 0.002855848 0.21801293 -0.036944795
-0.009474963 0.2609306 -0.11046434 0.013979234 0.36375594 -0.09813943 0.007707423 -0.028503394
0.18039973 -0.0019302744 0.12168919 -0.090516366 -0.005922862 0.06602347 0.21282616 -0.14978378
-0.04188163 -0.18597259 -0.079589345 -0.013026685 0.105414316 0.35600334 -0.010458985 -0.097246975
0.054546606 -0.11525755 -0.24561524 0.07478919 -0.06860528 0.14488137 0.07571937 -0.06937519
0.14800842 -0.0120998835 0.11276193 0.17664969 -0.03696817 -0.16569705 -0.3465437 -0.123150416
-0.2233902 0.20190246 0.014273183 -0.09604193 0.044161897 -0.0627516 0.26326483 0.011291856
-0.25063303 -0.022489863 0.0715687 -0.039057262 -0.08371786 -0.08456943 0.037113335 -0.20753153
0.21670978 0.20459963 0.06425116 0.043492198 -0.19632478 -0.12721491 -0.01289182 0.07987695
0.28322873 -0.09189868 -0.22670975 0.105210595 -0.22855149 0.116580956 -0.20754325 -0.020953871
0.22336662 -0.06315865 0.06590107 -0.10673639 0.113349594 0.13384323 0.070654176 0.14261994
0.19619264 -0.0770232 -0.21516493 0.13004364 0.12032976 0.23556939 -0.14739943 -0.026251566
0.08561799 -0.100982875 -0.11586133 0.0116854245 0.17371657 0.53326523 -0.033609044 0.17366363
-0.08424773 -0.06955098 0.20249338 -0.024579674 -0.039464105 -0.06196509 0.41991553 -0.05545062
