topic_modeling/bert_topic/results/dep_text/miniLM/my_model/topic_embeddings.safetensors (safetensors, 44632 bytes, 1 tensors)

topic_embeddings f4 [29, 384]
000000 b0 bc 92 3c 61 32 6b bc 25 2c ad 3c 12 37 92 3d
       0.017912239 -0.014355273 0.021139214 0.0713941
000010 a6 97 9a 3d 7a 69 d4 3c 68 bd d0 ba d8 cb 41 3d
       0.07548456 0.025929201 -0.0015925588 0.04731354
000020 a9 30 cb 3c c4 ca 29 bd 3f 54 5d bd e9 98 16 3b
       0.024803476 -0.041453138 -0.05403542 0.0022979325
000030 10 7b 3a 3c fa 5f ae ba 73 46 5e 3d 88 80 3d bb
       0.011381879 -0.001330375 0.054266404 -0.0028915722
000040 c9 26 8e bc bc 04 05 bd 08 da cc bc d5 f6 69 3d
       -0.017352479 -0.03247522 -0.02500631 0.057120163
000050 30 e2 4c bd b9 a1 eb bb 2b 69 24 bd 4e 8b 2e 3d
       -0.050020397 -0.0071909097 -0.04013936 0.04261332
000060 45 89 28 bc ba b4 96 3d 63 44 03 bd ad c5 8b bc
       -0.010286634 0.073586896 -0.03204764 -0.017062033
000070 d5 30 1e 3c 0a 8f 0a bc f6 24 21 3c e1 97 db 3a
       0.009655197 -0.008456955 0.009835472 0.0016753637
000080 aa c3 a1 3c cd 0f c0 3c bd dc 29 3d 78 2f 84 3c
       0.01974662 0.023445034 0.041470278 0.016135916
000090 73 89 67 bd a6 9b 92 ba cc 31 9a 3c 06 d9 65 bb
       -0.056527566 -0.0011185303 0.018822573 -0.0035071983
0000a0 d7 74 72 3c d4 c9 23 3d a8 94 05 3d 56 31 3d bc
       0.014798365 0.0399874 0.032612473 -0.011547407
0000b0 b9 f1 46 3c 41 1a 83 bd 59 e6 c8 bb 10 0d 09 bd
       0.012142592 -0.06401492 -0.006130975 -0.033459723
0000c0 13 4c c3 3c da 97 14 bd 65 30 9c 3c 33 f1 f5 3c
       0.023839986 -0.03627763 0.019066045 0.03002224
0000d0 3f 6c 90 bb 81 d2 45 3b 12 f0 f0 3c e2 67 01 3d
       -0.004407435 0.0030185285 0.02941135 0.03159321
0000e0 bf cc 65 3d 86 22 e3 3c e7 87 46 3c 56 ec b8 3c
       0.056103464 0.027726423 0.012117363 0.022573631
0000f0 12 11 22 b9 a5 4d 45 3c a7 2d b3 3b f6 f4 df bb
       -0.00015455883 0.012042438 0.0054680887 -0.0068346215
000100 17 5f 53 3d 1b e1 87 3d 90 0a 91 bc 37 dd a5 bc
       0.051604357 0.06634732 -0.017705232 -0.020247085
000110 c6 84 8d 3c 30 de 0b 3d 45 d6 56 bd c0 14 87 bd
       0.017275225 0.03414744 -0.052450437 -0.065957546
000120 2e f6 c3 3c be cd 39 bc 56 72 14 3c 8f bd 15 3d
       0.023921099 -0.011340557 0.009060463 0.03655773
000130 fe f3 eb 3c f2 98 86 bc 88 3b 41 3d bb 4f 82 3d
       0.028802868 -0.016430352 0.047175914 0.06362864
000140 30 1b 9e 3c 0f be c3 3d 9e c6 47 bd f3 57 68 bb
       0.019300073 0.09557735 -0.0487734 -0.0035452812
000150 06 54 15 bd 88 14 e3 bc 94 af 52 3d a2 11 b8 3c
       -0.036457084 -0.027719751 0.051436976 0.022469345
000160 27 91 c1 3c 5c b8 d3 3c 8e 1c e1 bc c0 48 a9 ba
       0.023628784 0.025844745 -0.027479436 -0.0012915358
000170 02 1a 60 bc b1 19 08 bc 4d af 60 3c a4 9f ac bb
       -0.013678076 -0.008306907 0.01371367 -0.005268054
000180 e1 d8 0a bd 6c c0 e6 3c 9e d6 4f bd 24 cf 6d 3d
       -0.033898238 0.028167926 -0.050741784 0.058058873
000190 98 4e 78 bc 3c 28 eb 3c 79 67 b4 3c d0 c5 ed bc
       -0.015155457 0.028705709 0.022021996 -0.029024988
0001a0 eb 62 81 bb c7 0a 03 3d cb fb 22 bd 04 d0 27 3c
       -0.0039485595 0.0319927 -0.03979091 0.010242466
0001b0 c7 91 24 bd 86 a7 24 bd 29 07 62 bd c1 3e 06 bd
       -0.040178087 -0.040198825 -0.05518261 -0.03277469
0001c0 ca 70 5f 3c 0e 3e 19 bd c3 42 56 bd 60 f3 6b 3b
       0.013637731 -0.037412696 -0.052309763 0.0036003217
0001d0 91 95 ea bc 10 44 f7 ba 59 25 80 3d 92 16 b8 3d
       -0.028635772 -0.0018864889 0.062571235 0.0898868
0001e0 08 12 70 3c 84 66 ff b8 e9 7d 03 3c 52 b5 f4 3b
       0.0146527365 -0.000121784426 0.008025625 0.007467904
0001f0 ef 98 26 3a 64 db 80 3d bc 5f 31 bc e9 05 9d 08
       0.00063551863 0.062918454 -0.0108260475 9.450483e-34
000200 b6 54 91 3d 2f 31 31 bd 8e 18 64 3d 52 9c 5f 3d
       0.070962355 -0.043259796 0.05568748 0.054592438
000210 23 cb 7f bc 8f 07 61 b9 c3 0d d4 bc f9 d8 e8 ba
       -0.015612396 -0.00021460488 -0.025885468 -0.0017764858
000220 5c d0 85 3c 95 c0 a3 3b 06 1e 10 bc 0e e4 b2 3c
       0.016334705 0.004997323 -0.008796221 0.02183726
000230 39 59 1d bd 49 1d 00 bd 0c 95 74 bd a4 71 73 bd
       -0.038415167 -0.03127793 -0.059712455 -0.059434548
000240 7b e7 9b bc 85 31 0a bd f0 5b 74 3c 90 77 a3 3d
       -0.019031277 -0.03373863 0.014914498 0.07981789
000250 05 84 bf bb 4a 44 1a bd 6f 3e 8f b9 2e f7 8d 3b
       -0.0058445954 -0.03766278 -0.00027321602 0.0043324446
000260 6b d5 e6 3b 40 31 36 bc 84 ba be 3a f4 ee f1 bc
       0.0070444844 -0.011120141 0.0014551436 -0.029532887
000270 e0 ec 43 bd a5 5d 0d bb 0a 2f 24 bd 65 cd f2 3c
       -0.047833323 -0.002157071 -0.040083922 0.029638955
000280 b9 22 18 3d 02 37 0e bd a2 a4 26 bd 3c d8 77 b9
       0.03714249 -0.03472043 -0.04068435 -0.00023636309
000290 91 fc be 3b 88 89 3b 3d 00 4a 05 bb 7f 53 5a bd
       0.005828448 0.045785457 -0.0020338297 -0.053302284
0002a0 0c 5a 05 bd ed dd 0b 3d aa 6b e2 bb cd ef b4 ba
       -0.03255658 0.03414719 -0.006909807 -0.0013804376
0002b0 8b 8a 5e 3d 6e be a6 ba b6 6b 72 3c c5 d3 8c bd
       0.054331344 -0.0012721547 0.014796188 -0.06876329
0002c0 67 58 de bd f1 b3 2c 3d a6 d4 11 bd 52 76 3b 3c
       -0.10856705 0.042163793 -0.035603188 0.011441784
0002d0 8b bd ca bc 41 8a d3 bc 2f 26 16 bd 95 77 74 bd
       -0.024748584 -0.02582276 -0.03665751 -0.059684355
0002e0 c0 75 02 bd 9f 83 0c bd 02 e3 36 3d e5 e8 a3 3b
       -0.031850576 -0.03430521 0.044650085 0.0050021284
0002f0 79 86 73 3c d6 a7 94 bc 52 6d 40 bd fa 71 a3 bd
       0.014863604 -0.018146437 -0.046979256 -0.07980724
000300 ae 9d cc 3c d4 2d 14 3d ce 27 03 3c b9 8e 29 bd
       0.024977531 0.036176518 0.008005096 -0.041395877
000310 60 6b af bc d5 db 49 bb fb 5b 43 bc 67 78 18 3d
       -0.021413505 -0.0030801196 -0.011923785 0.0372242
000320 45 86 92 3c df ce b4 bc a8 c0 6b 3d b2 79 97 b9
       0.01788629 -0.0220713 0.05755678 -0.00028891634
000330 36 89 04 bd aa f2 c6 bd c0 64 92 bd e0 ce b4 bc
       -0.032357417 -0.09714253 -0.07148123 -0.022071302
000340 5a 13 0b bb 19 a7 6b 3c a2 c3 97 bb e6 31 09 3d
       -0.0021221251 0.014383101 -0.0046314755 0.033494852
000350 af 25 2c 3d be 1b 54 bb d1 bd 22 bd 27 bf 3a bc
       0.042028125 -0.0032365168 -0.039731804 -0.011398113
000360 43 ff 81 bd 5e 82 c1 3c 97 52 34 3c d9 91 7a 3b
       -0.063475154 0.023621734 0.011006019 0.0038233905
000370 41 5c 7f 3d 8f 58 32 bc 7c 7a 10 bd 41 b0 c4 88
       0.06234384 -0.010885372 -0.03527306 -1.1837758e-33
000380 72 9d b2 3c 97 54 b1 3b e4 b2 ad 3a 54 65 20 bd
       0.021803591 0.005411695 0.0013252166 -0.039159134
000390 1c 1d 6c bc 80 7c 03 bd 7a 50 19 bb 7a 81 15 bc
       -0.014411237 -0.032101154 -0.0023393915 -0.009125108
0003a0 b7 b6 16 bd 4b 00 82 3d 98 78 6b 3d 95 af 7c 3c
       -0.036795344 0.06347712 0.057488054 0.015422721
0003b0 1b 0c 29 3d 7c ea 2f 3d 0b 12 5a bd 39 fb 39 3c
       0.04127131 0.04294823 -0.053239863 0.0113514
0003c0 22 d1 c7 3b e3 84 b8 bb 80 17 4a bc 08 16 7f bd
       0.0060979286 -0.0056310757 -0.012334704 -0.06227687
0003d0 d6 8b 57 bd fe 79 78 3d 57 75 8a 3b 69 da 43 bd
       -0.052623592 0.060663216 0.004225414 -0.047815714
0003e0 56 8f ee 3c 02 60 19 3c f1 57 52 3d 46 5b f1 3c
       0.029121082 0.009361269 0.0513534 0.029462468
0003f0 e3 27 10 bc 6d 05 29 bd 5d 36 c7 3b c3 0c 0a 3d
       -0.008798572 -0.04126494 0.0060794787 0.033703577
