topic_modeling/bert_topic/results/dep_all_words/distilroberta/my_model/topic_embeddings.safetensors (safetensors, 86104 bytes, 1 tensors)

topic_embeddings f4 [28, 768]
0	0xbc89e0d6	-0.016830843
1	0xbbddeea4	-0.006772833
2	0x3c0c9ef0	0.0085828155
3	0xbc873477	-0.01650451
4	0x3d6c89d4	0.05774863
5	0xbb96652f	-0.0045896987
6	0xbbe235ac	-0.006903371
7	0x3cdd0969	0.026982026
8	0x3ccd355e	0.025049862
9	0xbb001250	-0.0019542165
10	0xbca1eff1	-0.019767733
11	0x3b06c131	0.0020561928
12	0xba9e0b15	-0.0012057746
13	0x3d13f531	0.036122505
14	0xbd03aa37	-0.03214475
15	0xbd3bf958	-0.04589209
16	0x3c8d875a	0.017276455
17	0xbc29cde6	-0.010364031
18	0x3b9443d7	0.0045246887
19	0xbbb722f2	-0.0055888826
20	0xbba44de8	-0.00501417
21	0x3c304d95	0.0107606845
22	0xbcb59b7a	-0.022168864
23	0x3ccda0a2	0.02510101
24	0x3c09b06f	0.008403881
25	0x3c8d2d80	0.01723361
26	0x3cf0a161	0.029373826
27	0x3bddccfb	0.0067688203
28	0x3c07bc03	0.008284572
29	0x3aeecd04	0.0018219058
30	0xbc596040	-0.013267577
31	0x3bd3d789	0.006464903
32	0xbc7450f3	-0.014911878
33	0xbb8be3c2	-0.004269094
34	0xbc0e16dd	-0.008672443
35	0x390db97c	0.00013515906
36	0xbca3d2d0	-0.019997984
37	0x3aafa29e	0.0013399904
38	0x3c4f8fd5	0.01266857
39	0x3c0a9c62	0.008460136
40	0xbcda2387	-0.026628269
41	0xbcdd99ea	-0.027050931
42	0xbbb801b4	-0.0056154374
43	0xbb3b3743	-0.0028566874
44	0x3c197468	0.009366132
45	0xbc820e7e	-0.015876051
46	0xbcd29fd3	-0.025710976
47	0x3d0a57d0	0.03377515
48	0xbc41450d	-0.011796248
49	0x3ba80999	0.0051280973
50	0xbb12528a	-0.002232703
51	0xbbc70631	-0.006073736
52	0xbc08d229	-0.008350887
53	0xba9efcbf	-0.0012129768
54	0x3cedc0c9	0.029022591
55	0xb99bcaca	-0.00029714993
56	0x3a1a8eb3	0.00058958976
57	0x3d0dc85e	0.034614913
58	0x3be55973	0.0069991886
59	0x3b1d5cfa	0.0024011717
60	0x3d63456b	0.055486124
61	0x3c932286	0.017960798
62	0xbcc8e775	-0.02452443
63	0x3c0a6946	0.008447951
64	0x3c23f49d	0.010007051
65	0x3c577dfc	0.013152596
66	0xbb78a184	-0.0037938068
67	0x3caa3cec	0.020781003
68	0x3b1f56de	0.0024313251
69	0x3c037d07	0.008025414
70	0xbbcd078a	-0.0062570022
71	0x3cffa1a9	0.031205015
72	0x3c89e362	0.016832057
73	0xbc9cd331	-0.019143673
74	0x3b88635a	0.0041622343
75	0x3c1a4588	0.009415992
76	0xbd334776	-0.043769322
77	0xbd2055bf	-0.039144274
78	0xbd36b689	-0.044607673
79	0x3bd8cccb	0.00661621
80	0xbc27974c	-0.010228943
81	0x3b4ececf	0.0031556373
82	0xbd3d070a	-0.04614929
83	0xbc66658a	-0.014062295
84	0xbbff36ee	-0.0077885306
85	0x3c5933c9	0.013256975
86	0xbc933a5c	-0.017972164
87	0xbbe2e710	-0.0069245175
88	0x3a79125a	0.0009501331
89	0xbc9d1b5e	-0.019178089
90	0x3c19f167	0.009395934
91	0x3bdcc3df	0.006737217
92	0x3cbe5f13	0.023238694
93	0x3d0d3eb1	0.034483615
94	0x3c179311	0.009251372
95	0xbc9100eb	-0.017700633
96	0xbc090d3f	-0.0083649745
97	0x3d2a8123	0.04162706
98	0x3be492c6	0.0069755046
99	0xbce66202	-0.028122906
100	0xbbe5d95b	-0.007014436
101	0x3b1a963d	0.0023588084
102	0xbc118cd9	-0.008883678
103	0x3d2479a2	0.04015506
104	0x3ce56411	0.028001817
105	0xbc1864e7	-0.009301401
106	0x3c1d0063	0.009582612
107	0xbc740515	-0.01489379
108	0x3bd5ff10	0.00653065
109	0x3b79ae73	0.0038098365
110	0xbc524e8b	-0.012836109
111	0xbc701699	-0.014653825
112	0x3c04d008	0.008106239
113	0x3ce70f5f	0.028205572
114	0xbbac6d51	-0.005262055
115	0xbc742a53	-0.014902669
116	0xbca51529	-0.020151692
117	0x3d06f123	0.03294481
118	0xbc5ed564	-0.013600681
119	0x3d30c4a6	0.04315629
120	0x3b50801d	0.0031814643
121	0xba607736	-0.00085626857
122	0x3ce2ad01	0.027670385
123	0x3b34346b	0.0027497064
124	0x3c95285a	0.018207718
125	0x3ce85f6f	0.028365819
126	0x3cd115b7	0.02552305
127	0x3cd9e6b6	0.02659927
128	0x3b824db6	0.003976549
129	0x3d0ac400	0.033878326
130	0xbc8cddcb	-0.017195603
131	0x3c5651b2	0.013081001
132	0x3b88bc07	0.004172805
133	0x3bc57c79	0.006026801
134	0xbb347be1	-0.0027539658
135	0x3bb9f122	0.005674497
136	0xbcfe3865	-0.03103275
137	0x3c05a40a	0.008156786
138	0xbc8de161	-0.017319383
139	0x3c05c6df	0.00816509
140	0xbcc36fbc	-0.02385699
141	0xbc8ed326	-0.017434668
142	0x3c73bf3c	0.014877137
143	0xbbe02bc1	-0.0068411534
144	0xbc109990	-0.008825675
145	0x3ce54f03	0.027991777
146	0xbbc4b452	-0.006002941
147	0x3ba8e489	0.0051541966
148	0xbd3562fa	-0.044283845
149	0x3ce0b367	0.027429296
150	0x3cdf8e24	0.027289458
151	0xbcbb43cd	-0.022859478
152	0xb99dc1f0	-0.00030089868
153	0xbd15a14e	-0.036530785
154	0x3c08738d	0.008328331
155	0xbcf0996b	-0.02937003
156	0x3d0054db	0.031330924
157	0x3cc1cb84	0.023656614
158	0x3cb9e7f7	0.022693617
159	0xbc2b28dc	-0.010446753
160	0x3c6c4425	0.014420544
161	0xbb1f0ca1	-0.0024269002
162	0x3d00ec36	0.03147527
163	0xbd47d5eb	-0.048787992
164	0x3cbafbdf	0.02282518
165	0x3a4c254a	0.0007787539
166	0x3aac1663	0.001312923
167	0x3b47d7ad	0.0030493543
168	0x3bdf7beb	0.006820192
169	0xbcf19cf5	-0.029493788
170	0x3ba396a2	0.004992322
171	0x3c65dbb6	0.014029434
172	0xbc3649ea	-0.011126021
173	0x3bf03c7b	0.0073314286
174	0x3c1062c0	0.008812606
175	0x3d0c608f	0.034271773
176	0x3c9c67a8	0.019092396
177	0x3b3be1c5	0.0028668505
178	0x3c304e57	0.010760865
179	0x3cb8ef14	0.022574939
180	0xbbfec010	-0.0077743605
181	0x3c8ca9ac	0.01717075
182	0x3957d696	0.00020583937
183	0xbbd2da30	-0.0064347014
184	0xbc69d38e	-0.01427163
185	0xbd040f6c	-0.03224127
186	0xbcdb564a	-0.026774544
187	0xbc2bb52b	-0.0104802055
188	0xbb2026b7	-0.0024437138
189	0xbce8382a	-0.028347094
190	0xbbc28141	-0.0059358184
191	0xba841621	-0.0010077396
192	0x3d033c90	0.03204018
193	0x3c85c333	0.01632843
194	0x3b23c2a1	0.0024987834
195	0x3caf7a80	0.021420717
196	0x3c9dbbe7	0.019254638
197	0x3c7890e3	0.015171262
198	0xbc15049f	-0.00909534
199	0xbd09d551	-0.0336507
200	0xbca609a3	-0.020268267
201	0x3c241d82	0.010016801
202	0x3c4ca6e8	0.012490965
203	0xbd5984ea	-0.053105272
204	0xbcdc0518	-0.026857898
205	0xbc66554a	-0.01405842
206	0xbcf1f057	-0.029533548
207	0x3be75f41	0.0070609157
208	0xbbe52efe	-0.0069941273
209	0xbc69dd3a	-0.014273936
210	0xba6b3068	-0.00089717517
211	0x3a072203	0.00051549094
212	0xbce5f9ae	-0.028073158
213	0xbc899ade	-0.01679748
214	0xbc22c266	-0.0099340435
215	0x3d05cd97	0.03266677
216	0xbba515ea	-0.0050380128
217	0x3c9411aa	0.01807483
218	0xbc029338	-0.00796967
219	0xbd2cc747	-0.042182233
220	0x3cb0a830	0.021564573
221	0xbc87f32a	-0.016595442
222	0x3bb655a5	0.005564409
223	0x3a8c7f5d	0.001071911
224	0x3c08d7c7	0.008352227
225	0xbb9838b5	-0.004645432
226	0x3cec62c6	0.028855693
227	0x3c8253b6	0.015909057
228	0x3b9b9057	0.0047474313
229	0xbab34223	-0.0013676326
230	0xbcbf1ce9	-0.023329215
231	0x3c837fc2	0.01605213
232	0xbcaa26a1	-0.020770373
233	0xbcd33307	-0.025781168
234	0x3cdb8135	0.02679501
235	0xbd615080	-0.05500841
236	0x3d1c2e96	0.038130365
237	0x3c5eceda	0.013599122
238	0x3c87af7f	0.016563175
239	0xbd18f3cd	-0.03734188
240	0xbce4b974	-0.027920462
241	0x3cf37764	0.029720016
242	0x3c46014a	0.012085268
243	0x3b9ae7be	0.004727333
244	0x3c8f3aea	0.017484147
245	0x3c46ba81	0.012129427
246	0x3bd8ac23	0.006612317
247	0x3cdaa018	0.026687667
248	0xbbd1c7ab	-0.006401976
249	0x3c2dfa26	0.010618722
250	0x3be0df22	0.006862537
251	0xbc7a8223	-0.015289816
252	0xbc7583b6	-0.014985016
253	0xbc5bfe9a	-0.013427401
254	0x3bb051c3	0.0053808405
255	0xbcf453fe	-0.029825207
