topic_modeling/bert_topic/results/dep_all_phrases/mpnet/my_model/topic_embeddings.safetensors (safetensors, 95320 bytes, 1 tensors)

topic_embeddings f4 [31, 768]
0	0x3cd6702b	0.026176533
1	0x3c578f64	0.013156746
2	0x3b4ca042	0.003122345
3	0xbd212c70	-0.03934902
4	0x3caf7afb	0.021420946
5	0x3c865f7d	0.016402954
6	0xbd441faf	-0.04788178
7	0x3ba09b48	0.0049013235
8	0x3c0f3e9d	0.0087429555
9	0xba9d0c39	-0.0011981792
10	0x3ce49f8d	0.027908111
11	0x3ca82bbc	0.020528667
12	0xbccea752	-0.025226269
13	0xbb6ecf41	-0.003643945
14	0xbc7b055e	-0.015321104
15	0xbceb1924	-0.028698511
16	0xbc56b19a	-0.013103867
17	0x3ce7d958	0.02830188
18	0x3ba4a833	0.0050249337
19	0xbb1ea46d	-0.0024206892
20	0xbc8ee8a3	-0.017444914
21	0x3c7cb7db	0.015424694
22	0x3bedb6fe	0.0072544804
23	0x3af4b336	0.0018669132
24	0x3c505ad0	0.012716964
25	0xbcd35f01	-0.025802137
26	0x3cdaaaa4	0.026692696
27	0x3cb8d361	0.02256173
28	0x3b9764fa	0.0046201916
29	0x3c55abd4	0.013041455
30	0xb978c656	-0.00023725009
31	0x3c751c4c	0.01496036
32	0xbc480200	-0.012207508
33	0xbcecafee	-0.028892484
34	0x35d73173	1.603314e-06
35	0x3933ed96	0.00017159278
36	0xbcd9a828	-0.026569441
37	0xbcaafdb1	-0.020872923
38	0x3bb5fb6b	0.005553653
39	0xbcf13b32	-0.029447172
40	0x3cc81874	0.024425723
41	0xbd2978a1	-0.041374806
42	0x3d0e5a00	0.0347538
43	0x3c5ac040	0.0133515
44	0xba109820	-0.00055158325
45	0xbd07f816	-0.033195578
46	0x3b42dbf8	0.0029733162
47	0x3d396a5f	0.04526746
48	0x3c9b94e6	0.018991899
49	0x3c3bc259	0.01145991
50	0xbbc8c541	-0.00612703
51	0x3ba3c3bd	0.004997699
52	0xbd34c669	-0.04413453
53	0xbd0bbc6f	-0.03411525
54	0x3d3385fb	0.043828946
55	0x3c0b51cb	0.008503388
56	0x3bb1bc0d	0.0054240287
57	0x3b78ee99	0.0037984012
58	0x3d34c199	0.04412994
59	0xbd230544	-0.039799944
60	0xbc8dd947	-0.01731552
61	0xbd1a7987	-0.037713554
62	0xbcfb190d	-0.030651594
63	0x3cc3a868	0.023884013
64	0x3caeb725	0.021327564
65	0xba056c16	-0.00050896534
66	0x3cb5f3e4	0.022211023
67	0xbcb5604d	-0.022140646
68	0x3c0a18ba	0.008428747
69	0x3cb681b3	0.022278642
70	0xbce725c3	-0.028216248
71	0x3c8ed451	0.017435225
72	0x3c9cb082	0.019127134
73	0x3c337b49	0.010954686
74	0xbc1a1c3d	-0.009406147
75	0xbc85252a	-0.016253073
76	0x3bd375ad	0.006453237
77	0xba8cd939	-0.001074589
78	0x3cc9fd53	0.024656927
79	0x3bde4593	0.0067831962
80	0x3ca02fd3	0.019554054
81	0x3d812558	0.06305951
82	0x3c375485	0.011189585
83	0x393053ef	0.00016815936
84	0x3cbddd80	0.023176908
85	0xbc6d3c2c	-0.014479678
86	0x3b1bb20f	0.0023757254
87	0xbd1ca6c7	-0.03824499
88	0x3c8f6b7d	0.01750731
89	0xbc976b38	-0.018483743
90	0xbcd168e4	-0.025562711
91	0xbc30d769	-0.010793545
92	0x3c05ca69	0.008165934
93	0xbc5084d4	-0.012726981
94	0xbcbc4ee8	-0.022986844
95	0xbbfc1269	-0.0076926243
96	0xbc861c60	-0.016370952
97	0xbc9c3097	-0.019066138
98	0xbcb939d1	-0.022610577
99	0xbbe4e39d	-0.0069851414
100	0xbd141470	-0.036152303
101	0x3ce960d9	0.028488563
102	0xbd205cac	-0.03915088
103	0xbc69ac06	-0.014262205
104	0x3c53dcae	0.012931032
105	0xbcee7bcb	-0.029111763
106	0x3cadd312	0.02121881
107	0xbd23377b	-0.039847832
108	0xbd10005e	-0.0351566
109	0x3c922f0f	0.017844705
110	0x3c1598bb	0.009130652
111	0x3c99b092	0.018760953
112	0xbcffaca0	-0.031210244
113	0x3d04e2f5	0.032443006
114	0x3c7b9cc8	0.015357204
115	0xbd26cff3	-0.04072566
116	0xbd0e9b1c	-0.034815893
117	0x3c1a61ac	0.009422701
118	0xbcc64c9c	-0.024206452
119	0xbbf66243	-0.007519038
120	0xbce314df	-0.027719913
121	0x3bb59722	0.005541698
122	0x3c38509c	0.0112496875
123	0x3ca88ac9	0.02057399
124	0x3ce6c4f3	0.028170085
125	0x3ce6731e	0.028131064
126	0xbcf031b1	-0.02932057
127	0xbc2fdd13	-0.010733861
128	0x3b803f42	0.003913791
129	0xbc9eae02	-0.019370083
130	0x3c3b8946	0.011446303
131	0x3b9a4a19	0.00470854
132	0xbc527432	-0.012845086
133	0xbd2cfb1b	-0.04223166
134	0x3cc054e1	0.023477973
135	0x3d1ab9a7	0.037774708
136	0x3ced827d	0.028992886
137	0x3c09cb70	0.00841032
138	0xbd3fee5d	-0.04685818
139	0x3b3e1f2e	0.0029010284
140	0xb8984c40	-7.2621275e-05
141	0xbcaa7220	-0.020806372
142	0xbc6dcf93	-0.014514822
143	0x3b631f80	0.0034656227
144	0xbcd542f1	-0.026032897
145	0x3c2cadf9	0.010539525
146	0x3cd037f1	0.0254173
147	0xbd61b4d3	-0.055104088
148	0xba2dca6b	-0.0006629589
149	0xbd1ada54	-0.03780587
150	0xbbed062b	-0.0072334013
151	0x3c65e56a	0.014031747
152	0xbd225b34	-0.03963776
153	0xbc5ff73f	-0.013669788
154	0x3c38720a	0.011257658
155	0x3cbf8f94	0.023383893
156	0x3d42114e	0.047379784
157	0xbca2998b	-0.019848606
158	0xbcdd52d6	-0.027017038
159	0x3c55992c	0.013037007
160	0x3c31f3f1	0.010861383
161	0xbc1272a3	-0.008938464
162	0x3d47acc7	0.048748758
163	0xbceccd38	-0.02890645
164	0x3c1339c5	0.008985941
165	0x3bab8210	0.0052340105
166	0x3cdb0aee	0.02673861
167	0xbcf4e3b7	-0.02989374
168	0xbd25415a	-0.040345527
169	0xbb218021	-0.0024643021
170	0xbced6eb4	-0.028983451
171	0xbc31c153	-0.010849315
172	0x3c73412c	0.014847081
173	0x3d5caac7	0.053873803
174	0x3c871e7b	0.016494026
175	0xbbea17d2	-0.007143953
176	0xb9b0eef0	-0.00033747358
177	0x3cfd6dc7	0.030936135
178	0xbd4721cb	-0.04861621
179	0xbccd2125	-0.025040219
180	0xbc57aca2	-0.013163717
181	0xbc183240	-0.009289324
182	0xbb8d56a6	-0.004313308
183	0x3c57aafe	0.013163326
184	0x3c967a9d	0.018369013
185	0x3c2eb75d	0.010663834
186	0x3c477439	0.012173706
187	0x3bc371cb	0.005964493
188	0xbcdb117e	-0.02674174
189	0xbceefc31	-0.029172989
190	0xbcc7c14f	-0.024384169
191	0x3bc33397	0.0059570777
192	0xbca3f453	-0.020013964
193	0x3cc71e83	0.024306541
194	0xbbef938f	-0.0073112915
195	0xbc6fe7e8	-0.014642693
196	0x3cae0ae1	0.021245422
197	0xbc4f7ff4	-0.012664784
198	0x3bbe3810	0.005805023
199	0xbca35818	-0.019939467
200	0xbd0566c8	-0.032568723
201	0x3ae6677b	0.0017578447
202	0x3cd71418	0.026254699
203	0xbbf9a9d7	-0.0076191234
204	0x3b11cdfb	0.0022248018
205	0xbbbed138	-0.0058232807
206	0xbcf843ee	-0.030305829
207	0xbae8b929	-0.0017755377
208	0x3ca980d9	0.020691322
209	0x3bb7e025	0.005611437
210	0xbce037f5	-0.027370432
211	0x3ca7c75c	0.020480804
212	0x3c553505	0.013013129
213	0x3b82b24c	0.00398854
214	0x39f4d0f6	0.00046694995
215	0x3ceaa1d4	0.028641619
216	0x3b81818a	0.00395221
217	0xbb689ea7	-0.0035494955
218	0xbd419ecd	-0.047270585
219	0x3b98c1d9	0.0046617803
220	0xbc7bb6d0	-0.01536341
221	0x3ba80863	0.005127953
222	0xbbf3c1b8	-0.0074388646
223	0x3b3ec69f	0.0029110087
224	0x3c96f8eb	0.01842924
225	0xbc8b824c	-0.017029904
226	0x3d3569ee	0.044290476
227	0x3c171604	0.0092215575
228	0x3cdb0c6e	0.026739325
229	0x3c3ff732	0.011716651
230	0xbbadd30e	-0.0053047007
231	0x3d011bff	0.03152084
232	0x3c87c162	0.016571704
233	0xbb17c373	-0.0023157268
234	0xbd136305	-0.035983104
235	0x3ceedf87	0.02915932
236	0x3ce15de8	0.027510598
237	0xba4cb4ad	-0.0007808905
238	0xbd127640	-0.035757303
239	0x3bbf3ca8	0.005836088
240	0x3d0fb235	0.03508206
241	0x3c2f7db1	0.0107111195
242	0xbbd5554f	-0.0065104137
243	0xbc055b84	-0.008139495
244	0x3d52127c	0.05128716
245	0x399cc6ef	0.00029902856
246	0x3c92690f	0.017872361
247	0x3c7a2f7a	0.015270108
248	0x3bca1cd9	0.0061679897
249	0x3a747eff	0.0009326785
250	0x3cd0fc4b	0.025510928
251	0x3a29dd21	0.0006479789
252	0x3b6720a7	0.0035267265
253	0xbc772dfe	-0.015086649
254	0x3cf876c5	0.030330071
255	0xbc1ee8d5	-0.009699066
