topic_modeling/bert_topic/results/dep_all_words/miniLM/my_model/topic_embeddings.safetensors (safetensors, 46168 bytes, 1 tensors)

topic_embeddings f4 [30, 384]
000000 91 af bd 3c 77 0f 6a 3c b8 7a 0d 3d 0c 0d a1 3d
       0.023155006 0.014285914 0.03454086 0.078638166
000010 c2 d4 e5 3c 61 ef 6f 3a 7f 00 63 3d a6 7a ab 3c
       0.028055552 0.00091527967 0.055420395 0.020932507
000020 ef 7e 0f 3c 40 ce 31 bd 6c e5 f8 bc 11 2a d9 bc
       0.008758291 -0.043409586 -0.030382834 -0.026509317
000030 f4 47 ee 3a 2c 0e 2f bc 36 72 8d bb a4 02 99 3c
       0.0018179403 -0.010684531 -0.0043165935 0.018678017
000040 a5 cc b4 bb af 6c 9b bc f7 19 cf bc 43 7b f2 3c
       -0.0055175596 -0.018972723 -0.025280936 0.029599791
000050 c3 39 15 bd 25 0d 09 3d df 4e e6 bc f3 48 9d 3c
       -0.03643204 0.0334598 -0.02811378 0.019199824
000060 a8 72 a2 bc 11 5d 3f 3d ec 79 28 bb 98 1c 77 bc
       -0.019830063 0.046719614 -0.0025707437 -0.015082501
000070 5c 1a b2 3c f2 2c 5a bc 74 20 d9 3b be 91 16 3b
       0.021741085 -0.01331638 0.006626183 0.0022975053
000080 ff 30 08 3d f6 9a f5 bb 52 55 22 3d 1a 70 a6 39
       0.03324985 -0.0074952794 0.03963215 0.0003174551
000090 36 c0 b0 bc 75 21 40 3c b3 33 b5 bc de c4 07 bc
       -0.021576028 0.011726727 -0.022119379 -0.008286683
0000a0 38 ba 98 bb a8 89 05 3c a5 9b bc 3a e6 30 b0 bb
       -0.004660871 0.008150496 0.0014389647 -0.005376923
0000b0 d6 16 89 bc 00 72 1b bd b5 e7 93 bc b2 d4 c6 bc
       -0.016734522 -0.037950516 -0.018054822 -0.024271343
0000c0 f3 f7 2a 3d d5 38 0e bd 48 05 13 3a d7 b9 fe bc
       0.04174037 -0.034722168 0.0005608392 -0.031094475
0000d0 be eb b6 bc ab ff 86 bc 09 1d 37 3d d3 76 ac 3b
       -0.022329208 -0.016479334 0.044705424 0.0052631884
0000e0 6f 44 10 3d 64 89 05 3d e8 24 5d 3c 41 8f 64 3c
       0.035221513 0.03260173 0.013497569 0.01395017
0000f0 0c a4 9c bc 45 ed d4 3c 6d a6 1e 3c 99 b3 11 bd
       -0.019121192 0.025992045 0.009683234 -0.03557167
000100 2d fb 9c 3d 38 19 49 3d 29 28 01 3c d7 53 51 bc
       0.076650955 0.049096316 0.00788311 -0.012776337
000110 38 83 ae 3c 64 4a 68 3d a2 78 ab bc 23 af 64 bd
       0.021302804 0.05671157 -0.020931546 -0.055831086
000120 7a 7b 5d 3c e5 5d 87 bc 2e 79 46 bc 81 f3 c3 3b
       0.013518209 -0.016524265 -0.012113852 0.0059799557
000130 e1 5e cc 3c 82 a0 3a bd 39 5e 4f 3d 6f e5 0c 3d
       0.024947586 -0.04556323 0.050626967 0.034398492
000140 a9 43 99 3c 65 ba c4 3a e5 39 d4 bc 51 b4 d1 bc
       0.01870902 0.0015009163 -0.025906513 -0.025598677
000150 52 d8 0e bd cf 4d 12 bd 1d 38 05 3d 98 11 23 bc
       -0.034874268 -0.035718735 0.032524217 -0.009952925
000160 a3 b6 3f 3c 2c d5 0b 3d 90 c0 57 bc e1 c2 55 bc
       0.011701259 0.034138843 -0.013168469 -0.013046951
000170 23 0a 50 3b 00 53 a7 3c 3e 9b e1 3b 3c 5a 69 3c
       0.0031744323 0.02042532 0.0068849614 0.014242705
000180 36 3b ec bc 12 1e 19 3c 75 fb 08 be d9 3c be 3d
       -0.028836828 0.009345548 -0.13377173 0.092889495
000190 2b 68 88 bc 72 66 5b 3d b0 83 0f 3d e2 e8 8b 3b
       -0.016651234 0.053564496 0.035037696 0.004269705
0001a0 43 6a 2b bc be 98 ad 3b 69 1e 9c 38 dd da d5 bb
       -0.0104623465 0.0052977493 7.444324e-05 -0.0065263347
0001b0 73 d3 cd bc 7d 43 01 bd 05 9c a9 bd a2 60 03 bd
       -0.02512524 -0.031558502 -0.082817115 -0.032074578
0001c0 1b a7 01 3c 05 7c ed bb 76 9c 0c 3c ac ed cc 3c
       0.007913376 -0.0072474503 0.008582225 0.025015675
0001d0 2b ab 9b bc 3f 0a 0c 3b 37 8d 31 3b 8b bf 4c 3d
       -0.019002518 0.0021368412 0.0027092227 0.049987357
0001e0 1e a2 cd 3c 85 60 5a ba 32 84 60 bc 7d 63 50 3c
       0.025101718 -0.00083304226 -0.013703393 0.012719032
0001f0 49 f0 b0 3c 7f 93 64 3c 9d cc 0f bd 01 8c 17 09
       0.021598952 0.013951181 -0.035107244 1.8241793e-33
000200 c0 f9 b1 3d 67 6d 7f bc 8d 43 16 3c 7e 2d 72 3d
       0.08690214 -0.015590048 0.009171379 0.059125416
000210 8d e3 df bb 58 0b 39 3b f1 a9 68 bc 29 1e 8f bb
       -0.006832546 0.0028235521 -0.014200673 -0.004367609
000220 87 c5 1c 3c d9 a5 9f bc 5d 6f df bb 12 3b 06 3c
       0.009568579 -0.019488262 -0.0068186955 0.008192794
000230 86 5a b2 bc 3c 2f 43 bc f5 8d 25 bd ae d7 7c bd
       -0.02177168 -0.011913117 -0.040418584 -0.061729126
000240 98 31 e2 bb 16 06 c6 ba 27 41 30 3d 50 f9 c7 3c
       -0.0069028847 -0.0015108015 0.043030884 0.024410874
000250 73 49 fc bc 0e d4 00 3d d0 c2 7e bb f6 f9 b9 bc
       -0.030796742 0.03145223 -0.0038873442 -0.022702198
000260 42 c9 c2 bc b9 c6 32 3c 9c 2c e8 3a f6 ed 0f bc
       -0.023777608 0.010911637 0.001771349 -0.008784762
000270 3c 3e 0c bc f1 d6 b8 3c 1e 22 f2 bc 25 c1 e1 3c
       -0.00855976 0.02256343 -0.029557284 0.027557919
000280 73 ae 87 3c 2b cc 26 bd 52 e7 e0 bc 06 01 46 bc
       0.016562676 -0.040722053 -0.027454052 -0.012085205
000290 25 49 82 bb f5 ff e7 3c 27 3a 45 bc 51 86 f8 bc
       -0.0039760047 0.028320292 -0.01203779 -0.030337485
0002a0 f6 a1 31 bc 4d f1 0d 3d 67 d0 9d b7 51 0c 0f bc
       -0.010841837 0.03465395 -1.8812903e-05 -0.008730964
0002b0 51 bd f8 3c a6 f0 13 3d f0 de af 3c 20 56 8f bc
       0.03036371 0.036118172 0.02146861 -0.017497122
0002c0 90 12 06 bd 11 8e 43 3d 1a 06 34 3c e5 54 39 3c
       -0.032732546 0.047742907 0.010987783 0.011311744
0002d0 51 f9 85 bb 1c da ec bc 79 98 4a bd 65 6f ec bc
       -0.0040885587 -0.028912596 -0.049461816 -0.02886171
0002e0 a5 96 56 3c 3e 8c 15 bb 5e 09 a8 3c 31 be 7e bb
       0.01309744 -0.0022819187 0.02051228 -0.0038870687
0002f0 df 4b 45 3d 6a 82 8b bc f6 56 06 bd 72 3c 7a bd
       0.04816806 -0.01702996 -0.032797776 -0.0610928
000300 4b a5 75 3c 6d 2e 16 3c 16 37 e3 bc 29 07 8a bd
       0.014993022 0.009166342 -0.027736228 -0.06739647
000310 ea d9 26 bd bd e5 c2 bc 55 38 fd bc a1 e1 b6 3c
       -0.040735163 -0.023791188 -0.03091065 0.022324385
000320 ba 02 d6 3c 9c 32 0a bd a9 74 0f 3c 28 9a 15 bc
       0.026124347 -0.03373967 0.008755841 -0.009130992
000330 64 7a 12 3c b5 df 6d bd cc 25 10 bd 69 50 93 bd
       0.008940313 -0.05807467 -0.035192296 -0.071930714
000340 34 ec 08 3d 1d 43 04 bd a3 58 f1 bc cc 6c f4 3c
       0.033428386 -0.032290567 -0.02946121 0.029837035
000350 52 19 a2 3c ac ed 13 ba e0 dc ca bc b1 33 50 bd
       0.019787464 -0.0005643021 -0.024763525 -0.050830547
000360 aa 3c a0 bd 3d 5a 3f 3d 6b 72 07 bd 5e 8c be 3b
       -0.07824071 0.046716917 -0.0330681 0.005815073
000370 ed 5d 18 3d 68 f4 98 bc 18 d7 d0 bc 8e 24 14 89
       0.03719895 -0.01867123 -0.02549319 -1.783204e-33
000380 93 b8 33 3d e5 07 28 bd f9 6c 1e bd ca cf 80 3c
       0.043877196 -0.041023154 -0.038678143 0.015724082
000390 78 18 0d 3d 89 a7 9f 3b c5 87 33 bc c4 96 a6 3c
       0.034447163 0.0048722667 -0.010957663 0.020335563
0003a0 dd f3 86 3a 8c f4 6c 3d 03 7e 32 3d 70 17 f4 bc
       0.0010296066 0.057850406 0.043577205 -0.029796332
0003b0 47 2c cc 3c 31 5b 4e 3d dd ca 55 3c 2d e3 3f bc
       0.024923457 0.050379936 0.013048855 -0.011711878
0003c0 99 a8 59 3d 37 fd 79 3c b9 b7 c9 bc e0 ca 55 3c
       0.053139303 0.015258125 -0.024623739 0.013048857
0003d0 49 02 d9 bb 1b d3 8b 3d e8 90 bd bc 8e da d9 bc
       -0.006622587 0.068273745 -0.023140386 -0.026593473
0003e0 85 6c 05 3d 0f f2 40 3d 27 00 b0 3c 5b 3f 88 3c
       0.032574195 0.047105845 0.021484448 0.016631773
0003f0 1d fd cd bc 47 91 04 bd 9f 38 f2 3b b4 62 ad 3c
       -0.025145108 -0.03236511 0.0073920037 0.02116523
