topic_modeling/bert_topic/results/wor_text/miniLM/my_model/topic_embeddings.safetensors (safetensors, 55384 bytes, 1 tensors)

topic_embeddings f4 [36, 384]
000000 1f 79 5d 3d 14 36 e5 bc 1d 6e d3 3b d2 2a 57 3d
       0.05407059 -0.027979888 0.0064523355 0.05253107
000010 e3 76 85 3d 56 82 15 3c e6 9b 91 3c 9e 63 c1 3b
       0.065168165 0.009125313 0.017774533 0.005901768
000020 e6 2e 12 bc 85 26 56 bd 63 28 d3 bc 7d 39 d8 3c
       -0.008922314 -0.05228283 -0.025776094 0.0263946
000030 24 d2 da 3c c8 b2 e8 bc 5d 3d ff bc 06 75 32 3a
       0.026711531 -0.028405562 -0.03115719 0.0006807599
000040 f8 c2 23 bd 3c 05 78 bd 39 0e 7d bd f5 6d 77 3d
       -0.03998086 -0.060551867 -0.061781142 0.060407598
000050 dd af 6b bd 6f 3a 4b 3b 1f 9e 36 bd 20 7e 8b 3c
       -0.057540763 0.003101017 -0.04458439 0.017027915
000060 ae ce de bc e7 16 51 3d 67 7c 85 bc 68 4d 0e bd
       -0.027198162 0.051047232 -0.016294671 -0.03474179
000070 7c 30 13 bb ce 1b 25 3c 64 36 92 3c 43 26 29 bd
       -0.002245932 0.01007743 0.017848201 -0.041296255
000080 20 1b a0 bc 47 63 d8 bc 67 ae 93 3c 7d 3d 2d 3b
       -0.019544184 -0.026414527 0.018027497 0.0026434355
000090 cf 1b 96 3b cc 04 b7 bc b5 8c ea 3c 76 93 05 bd
       0.0045809518 -0.022341155 0.028631547 -0.032611333
0000a0 e1 62 6d 3b 0a eb 30 bc 49 60 d1 3c d4 be 5d 3b
       0.0036222266 -0.010798225 0.025558608 0.0033835666
0000b0 fa a1 fe 3b 5e 27 34 bd 3f 63 a0 bb 53 03 4e bd
       0.007770774 -0.043982856 -0.0048946436 -0.05029614
0000c0 b9 dd 57 3c 11 de 39 bd 80 58 91 bc 7c a6 5d bd
       0.013175421 -0.045377795 -0.017742395 -0.05411385
0000d0 bb f4 e6 3c 88 ed ac bc 04 ef 1f 3d 65 c5 ee 3c
       0.028192868 -0.021109357 0.039046302 0.02914686
0000e0 b1 24 ca 3b 1d ca 64 bc 11 c8 ba bb 31 8a d2 3c
       0.0061689247 -0.013964203 -0.0057001193 0.02570066
0000f0 97 34 a7 bc b4 bb 69 3c 5c b7 09 bc bf 59 96 3c
       -0.020410819 0.014265943 -0.008405533 0.018353341
000100 77 4a 58 3b 6b ea 37 3d 47 c4 00 bb f2 e2 c4 3c
       0.003300337 0.044901293 -0.001964824 0.024033997
000110 51 dd 34 3d 64 05 52 3d 36 07 25 bd a6 f6 5c bd
       0.044156376 0.051274672 -0.04029008 -0.05394616
000120 0d 4e 02 bc 8f d9 10 bc 8e fd 06 3d e6 09 1e 3d
       -0.007953179 -0.0088409325 0.032956652 0.03858366
000130 a7 83 4d 3d 89 c8 2b bd 4f f9 52 3d a5 9f 00 3d
       0.05017438 -0.041939292 0.05150729 0.03140225
000140 3e 64 33 3d a6 fa 82 3d 75 f7 f7 3b 58 b1 0a bc
       0.04379677 0.06395464 0.007567341 -0.008465134
000150 3a 29 3d bc ec 1c be bc 4a d1 34 3d fa cb 12 3d
       -0.011545474 -0.02320715 0.044144906 0.03583906
000160 a6 2c 3d 3d 3f b9 34 3c 62 1f cc 3c 20 e4 03 bd
       0.04618516 0.011030494 0.024917308 -0.03219998
000170 e5 7d ba 3c 17 bd 09 3d 5c 89 ad 3c a4 d7 11 3d
       0.02276511 0.033627596 0.021183662 0.03560604
000180 cd 16 28 bd 2c 71 53 3c 98 a1 34 bd c9 6a 84 3c
       -0.04103737 0.0129054 -0.04409942 0.0161642
000190 a2 0e fd bc 7f db d2 bc 86 d6 01 3d f9 a5 a0 3c
       -0.030890767 -0.02573943 0.031698726 0.019610392
0001a0 85 6e 64 bc 1b fa ff 3c b3 23 67 bc 98 56 57 bc
       -0.013942366 0.03124719 -0.014107632 -0.013143204
0001b0 79 a6 1f bd 50 2f 8d bc 89 7d 43 bd 6e ec d3 3b
       -0.03897712 -0.017234474 -0.04772714 0.0064673936
0001c0 c0 7f 37 3c c1 82 1c bc f9 df 0a bd 00 04 3e 3c
       0.011199892 -0.009552659 -0.033905003 0.011597633
0001d0 c9 05 9c 3b b8 2a 10 bc 1d ac 04 3d 43 81 b2 3d
       0.004761432 -0.008799247 0.032390703 0.08716061
0001e0 27 fe c3 3c 6f 8d f7 bb 5f 86 0e 3d 6b d1 8f bb
       0.0239249 -0.007554702 0.034796115 -0.0043889782
0001f0 0b f5 79 3c 06 d8 25 3d 2b 67 43 3c dc 27 64 07
       0.015256177 0.04048922 0.011926453 1.7164527e-34
000200 24 ba c3 3d 7e 76 c4 bc 14 93 1c 3c 51 ec 38 3d
       0.09556988 -0.023982283 0.0095565505 0.045147244
000210 9d 46 c4 bc 12 12 1b 3a 04 50 b2 3a 6f 00 f2 38
       -0.023959452 0.00059154734 0.0013604169 0.0001153954
000220 d8 39 da 3c 88 bd d4 3c eb 65 28 3d aa 46 41 3c
       0.02663891 0.025969282 0.04111282 0.011796633
000230 dd e1 d0 bc 0d e6 30 bd 8a 77 8a bd dd 7b 11 bd
       -0.025498325 -0.043188144 -0.067610815 -0.035518516
000240 2e c6 03 bd 0d 42 aa 3c d6 ce 7a 3a a2 f4 49 3d
       -0.03217142 0.020783449 0.0009567564 0.049305566
000250 e6 32 ae bc b8 ef 94 bd 30 80 02 bd db 89 e6 3c
       -0.021264505 -0.07272285 -0.03186053 0.028141906
000260 97 07 a9 3c 5e d9 7a bc 8e 5f 46 3c b5 ed d1 b9
       0.020633502 -0.015310613 0.012107743 -0.00040040692
000270 8b 89 e4 3b 91 09 41 3c 1b ad 99 bd 6a ae 75 3d
       0.006974404 0.011782066 -0.075037204 0.059980787
000280 31 66 8c 3b 8d b1 2d bd 78 d6 62 bd 50 9b 00 3d
       0.004284643 -0.042405654 -0.055380315 0.031398118
000290 15 12 4a bd 69 f0 3f 3d 0d 97 2c 3b be d6 87 bd
       -0.04933365 0.046860132 0.002633515 -0.06632756
0002a0 12 c9 5f 3c 83 46 9b 3c 2d 71 df 3b 88 51 09 3d
       0.013658779 0.018954521 0.0068189115 0.03352502
0002b0 1d a5 87 3d 07 44 d1 3b a7 96 a0 3b 52 2b 68 bd
       0.0662329 0.0063862833 0.0049007717 -0.05668194
0002c0 d5 90 cd bd c3 f8 4a bc dc 70 86 bd d3 7f 8c 3c
       -0.1003739 -0.012388411 -0.06564495 0.017150795
0002d0 c4 eb e8 bc 56 fb 21 3c 27 32 68 bd 19 cd 57 bd
       -0.028432734 0.009886583 -0.056688454 -0.05268583
0002e0 0c 00 63 3c 7b e9 fc bc 59 3e 8d bc ab a7 8f bc
       0.013854992 -0.03087305 -0.017241644 -0.017536005
0002f0 9a 13 81 bc 1f ac 47 bc bd c7 6a bd 85 6e 67 bd
       -0.015756417 -0.012187033 -0.05731939 -0.056501884
000300 f8 ac aa bb f5 23 0e 3d 1d d9 81 3c e2 13 b2 bc
       -0.0052086078 0.03470226 0.015850598 -0.021737996
000310 6a 79 39 bc 1f ff ab 3c 20 15 be bc f3 55 d0 bc
       -0.011320451 0.020995675 -0.023203433 -0.025431609
000320 0b 7b 5c bb c7 78 06 bc 7a 1e 11 3d da a0 e6 3c
       -0.0033642675 -0.0082075065 0.035429455 0.028152872
000330 65 47 0e bd 4a 39 04 bc 7f 5d f2 bc c6 91 ca bc
       -0.034736056 -0.008070299 -0.029585598 -0.024727713
000340 6b 71 37 3b 1d 22 87 3b b1 f5 56 3d 4a 71 f4 3c
       0.0027991186 0.0041239397 0.052480403 0.029839177
000350 f6 e3 3f 3d 79 22 45 bc 06 fe 2d bc 68 0b ee 3c
       0.04684826 -0.012032145 -0.010619646 0.029058173
000360 89 30 5d bd d4 ea 38 3d b9 53 f7 3c 2b d0 f0 3c
       -0.054001365 0.045145825 0.03019129 0.029396137
000370 2e a7 8e 3d a2 39 ed 3c d5 e9 77 bd 3c e5 01 89
       0.06965481 0.028958146 -0.060525734 -1.5635596e-33
000380 6c 27 bf bc 11 8f ad bc f7 07 16 3c b9 6a c8 bc
       -0.023334228 -0.021186383 0.009157172 -0.024464952
000390 c4 35 04 bd b6 0e 05 bd 04 28 96 3c e8 d3 9f 3c
       -0.032277837 -0.032484733 0.018329628 0.019510224
0003a0 b8 11 83 ba 38 f8 3a bb e6 91 79 bb c0 34 1a 3d
       -0.0009999787 -0.0028529298 -0.0038081347 0.037647963
0003b0 c0 3d 63 3d 26 b2 57 3c a9 e7 da bc 78 f3 4e bb
       0.05547881 0.0131650325 -0.026721792 -0.0031578224
0003c0 0b ab 29 3c d5 6c 97 bb ab fe 70 3c c6 09 29 bd
       0.010355721 -0.004621128 0.014709155 -0.041269086
0003d0 04 24 3b bd 4a d4 83 3b 53 53 9a bc 93 a1 8a 3b
       -0.045688644 0.0040231096 -0.01883856 0.004230687
0003e0 cd a4 8f 3c b4 fd 0d 3d 0b 18 07 3c da a4 e2 bc
       0.017534638 0.03466578 0.008245478 -0.027666498
0003f0 a8 61 a8 bb b3 49 27 bd 4d a4 e4 bc 34 34 d2 3c
       -0.0051385947 -0.04084177 -0.027910376 0.025659658
