topic_modeling/bert_topic/results/dep_text/distilroberta/my_model/topic_embeddings.safetensors (safetensors, 95320 bytes, 1 tensors)

topic_embeddings f4 [31, 768]
00000000: ee8e 66bc cda8 f43c c0ab 8aba c82f d43c
00000010: d86a 6c3d cc93 f93a 921d 64bb 4212 cebb
00000020: aba8 783b e87d 333d 09ed 0a3c cb77 71bc
00000030: 38d3 e73b dff9 a33c e2b7 67bd 7421 c3bc
00000040: b4f7 69bc c479 32bc e76d 8fbc 7cfe ee3c
00000050: d728 f93c cd04 aebc 5fe6 23bd 5923 a83c
00000060: f4c3 6cbc 6b0e 913c e8c2 503c d56a bc3b
00000070: f35c 2b3d 8050 1dbc 45e3 efba 9b48 be3b
00000080: f98d 60b9 2767 abbb f3d5 8abb 5ebc 97bc
00000090: 0779 e4bc 9c3e ba3b 273b 8ebc 6614 aebb
000000a0: bf11 28bc 5cd7 cbbc 5a07 aebc 9fad 14bc
000000b0: b5a7 b3bc ef63 05bd 0d98 3abc 377b dd3c
000000c0: 71a9 62bc 6bfe c53c 9fff 0ebc c5f5 d2bb
000000d0: 954f 99bc a6e2 a8ba eb14 0b3d 3449 a6bc
000000e0: 721c fabc c1ca ff3c 2c3e 4f3c 51f4 2fbc
000000f0: a74e 513d 15a6 adbb c1bb 80bc 60a3 bc3c
00000100: c95c 4ebc 4556 523c 6257 82bb 3950 893c
00000110: af05 943c 6f2c 0f3d c73d a5bb 69a7 273d
00000120: 3132 c83c 8e8b 7dbb 7fb1 083c 6861 eb3a
00000130: 497a ddbc 7e47 cbb9 5c5c 493c 4c7b f9bc
00000140: 97eb 5a3b 6f33 10bb 2ebd bbbc 14c4 7eba
00000150: 0c4d a0ba bac9 943c e105 b9bb 895c a83a
00000160: acdd dfbc c438 21bd 64c3 123c 9be5 14bd
00000170: f496 22bc 267e 80bc e81d 103d c9e0 d33a
00000180: 29ef 433c f13f 783d fa10 a43c af12 97bb
00000190: 7e60 afbc 61b1 adba a42e 803c 5246 333d
000001a0: fac4 253c 0cd1 653a 69a7 99bb e5be 0bbc
000001b0: 30b5 143d b205 663c 24b1 243c 48f4 97bd
000001c0: 05a9 303d b711 123d 1546 d4bc 0198 5abc
000001d0: daf6 2dbd 1b34 bd3c fe85 1fba 9527 583b
000001e0: 0c7e 313b c2d2 bdbc a130 d23c eb2e c7bc
000001f0: fb61 173c 07fd f73c cdfd debc 00ef 843d
00000200: 8513 80bc ba4d 073d a77d 173b 547c cdba
00000210: c6bf b43b 3546 903c 9209 f3bc 1e87 e2bb
00000220: e048 07bd f467 05bd 68b8 22bd 85dc 5d3c
00000230: adc7 3e39 216d 39bd fcc6 12bc 2620 9abc
00000240: 3f7f 7d3b 754d 17bc 287f 8f3b b103 9ebc
00000250: 932d 51bc ed0b e53c 454c 28bc 5904 13bb
00000260: 1541 983c 7cb8 13bd b583 a2bb df60 82bc
00000270: 8e9d 923d e192 b73c 5bab dcba 1bbb 3ebb
00000280: 218b 243c f194 52bc cefe a63b 04be 61bd
00000290: 29eb f63c 4dc0 1739 7325 1c3c 6720 b13c
000002a0: dbbc 4e3c 4926 febc ef69 f93c cf41 33bb
000002b0: f312 27bc 6419 a23c 9919 1c3c 5cae d7bc
000002c0: 940a 1c3d 4121 983b 295d 4d3b 75bb 92bb
000002d0: 34dc 26bc 0686 60bc 7695 96bc 6547 4abc
000002e0: 8150 7abc ebec 7739 377f bebc 80c6 30bb
000002f0: 6824 ee3a 8ee4 0ebd 84ef 4aba 4eee 01bc
00000300: c047 5c3d 39ad 933c 053f 06bc 9590 9b3c
00000310: ce04 813c c990 313b 7ccd 663c 9317 cbbc
00000320: e08f cabc 003b c339 f1e9 463c a1be 02bd
00000330: 9a3c 0e3c f935 e13b 8287 49bc 8469 053c
00000340: 0124 2abd 26ee 08bd 1ad9 4cbd 01d5 093d
00000350: 8e0f d83b 65da 76bc c4f1 03bc a4e0 113d
00000360: ce2b 2ebd 1748 553b 0e86 ee3c d538 57bc
00000370: f174 323d e85c 24bd 57b9 cabc 82e0 f73c
00000380: d48a cc3b 1bed 7f3a 379b 073d fc18 8ebb
00000390: f1ea 543d 85f1 0ebd a2e9 08bd a722 cd3c
000003a0: 1a88 57bb 3348 aa3b d9bf c83c 5425 0abc
000003b0: 664b 0b3d d18f cf3c 9ece a6bb 49ac 58bd
000003c0: d337 d3ba c08a 7b3c 4870 313a 5a83 0d3d
000003d0: 52fd 833b f8e4 163d 17ed 37b8 7f03 d5bc
000003e0: ae45 163d c6a1 43bc 7fae 6f3b 559e e23a
000003f0: c08a c9bc 5151 89bc d4c1 71bc db2d 43bd
-0.014072163 0.029865647 -0.001057975 0.02590169 0.05771908 0.0019041239 -0.0034807664 -0.0062887976
0.003794233 0.043821245 0.008479365 -0.0147380335 0.00707474 0.020016609 -0.05657185 -0.023819663
-0.014280248 -0.010893289 -0.01750846 0.029174082 0.030414982 -0.021242524 -0.04001462 0.020524668
-0.014451016 0.01770707 0.012741782 0.00575004 0.04183669 -0.009601712 -0.0018301985 0.005806995
-0.00021415194 -0.0052308026 -0.0042369305 -0.018522438 -0.027889742 0.005683733 -0.01736219 -0.0053124903
-0.010258137 -0.024882965 -0.02124374 -0.009074598 -0.021930555 -0.032566007 -0.011388791 0.027036292
-0.013834343 0.024169168 -0.008727937 -0.0064379894 -0.018714705 -0.0012884929 0.033955496 -0.020298578
-0.030531142 0.03122461 0.0126491 -0.010739402 0.0511004 -0.0052993395 -0.015714528 0.023027122
-0.012595364 0.012837951 -0.003977702 0.016761886 0.018069116 0.034954485 -0.005042765 0.04093114
0.024437996 -0.0038687917 0.0083431 0.0017958106 -0.02703585 -0.00038772443 0.012290087 -0.0304543
0.0033404583 -0.0022003313 -0.022917356 -0.0009718549 -0.0012229993 0.018162597 -0.005646453 0.001284496
-0.027327381 -0.039360777 0.008957718 -0.03635178 -0.009923685 -0.015685152 0.03518477 0.0016165014
0.011958876 0.060607854 0.020027626 -0.0046103816 -0.021408316 -0.0013251716 0.01564724 0.043768235
0.010117764 0.0008766807 -0.0046891463 -0.0085293995 0.036305606 0.014039444 0.010051999 -0.0741964
0.04312994 0.035661425 -0.025912324 -0.013341905 -0.042471744 0.023096135 -0.0006085335 0.0032982577
0.0027083186 -0.023171786 0.025657954 -0.024314364 0.009239669 0.03027202 -0.027220631 0.06490898
-0.015634308 0.03303311 0.0023115666 -0.0015677311 0.0055160252 0.017611602 -0.02966765 -0.00691308
-0.033028483 -0.03256984 -0.039726645 0.0135413455 0.00018194197 -0.04527009 -0.008958574 -0.018814158
0.003868058 -0.009234776 0.004379172 -0.01928887 -0.012767213 0.027959788 -0.01027209 -0.0022433011
0.018585721 -0.03606461 -0.0049595484 -0.015915332 0.071589574 0.022408905 -0.0016835736 -0.0029103223
0.010042937 -0.012852893 0.005096293 -0.055112854 0.03014143 0.0001447212 0.009530413 0.021621896
0.012618269 -0.031024115 0.03044602 -0.0027352457 -0.010197389 0.019787498 0.009527587 -0.026328258
0.038096026 0.004642636 0.0031336045 -0.004477913 -0.010184336 -0.013703829 -0.018381815 -0.012346123
-0.015277983 0.00023644014 -0.02325402 -0.0026973784 0.0018168809 -0.034885935 -0.0007741379 -0.007930351
0.053779364 0.018026935 -0.008193736 0.01898984 0.015749361 0.0027094355 0.014087077 -0.024791515
-0.024726808 0.00037237257 0.012140737 -0.03192008 0.008681441 0.006872889 -0.012300374 0.008142833
-0.041538242 -0.03343024 -0.05001173 0.033650402 0.006593651 -0.015066718 -0.008053247 0.035614625
-0.042522244 0.003254419 0.029116657 -0.013136108 0.043568555 -0.040127665 -0.02474658 0.03025842
0.0062421355 0.00097628095 0.03310701 -0.0043364745 0.05198187 -0.0348983 -0.033425935 0.025040938
-0.003288752 0.005196595 0.024505543 -0.008431751 0.034007452 0.025337132 -0.0050905487 -0.05289868
-0.0016114659 0.015352905 0.00067687454 0.034549095 0.004028001 0.036839455 -4.3851407e-05 -0.026002644
0.036687545 -0.011940425 0.0036572514 0.0017289618 -0.024602294 -0.016762407 -0.014755685 -0.047651153
