topic_modeling/bert_topic/results/wor_all_phrases/miniLM/my_model/topic_embeddings.safetensors (safetensors, 44632 bytes, 1 tensors)

topic_embeddings f4 [29, 384]
0.059267413 -0.0048324405 0.018469077 0.069499426 0.045603164 -0.010681507 0.071739964 0.00027176898
0.014358575 -0.05827977 -0.031275287 -0.013155162 0.008801662 -0.03400057 -0.028916959 0.008868995
-0.007984354 -0.03350632 -0.046103925 0.06090758 -0.058622904 0.01461921 -0.016971422 0.011177615
-0.043166216 0.057332285 -0.0066114073 -0.031207643 0.040139515 0.005046639 0.022432027 -0.012826176
0.0038048874 -0.015411146 0.034031473 -0.01130864 -0.008490627 0.014994518 0.013581672 -0.0042908923
-0.011396273 -0.01689755 0.009206142 -0.010743732 -0.0081175845 -0.025714466 -0.013027848 -0.023729827
0.02894521 -0.040111132 -0.04052877 -0.061362714 -0.0068027745 -0.04634416 0.050037276 0.016177163
0.02011092 0.028606169 -0.00514606 0.018596763 -0.034038167 0.021111062 -0.002925724 -0.0050464408
0.03284143 0.060116846 -0.0016434748 0.0059060333 0.045299903 0.04295927 -0.00194322 -0.040621027
0.0008277074 -0.016630003 0.023359051 0.020168046 0.023178723 -0.05711447 0.039871097 0.032919943
0.029686337 0.016681245 -0.007190292 -0.031517297 -0.007677579 -0.031770967 0.03825316 0.0050043743
0.014064822 0.036318734 0.025839396 -0.060788967 0.0011899346 0.033763822 0.023901004 0.043214172
-0.05671913 0.014423183 -0.10101327 0.053670034 -0.011798951 0.022457294 0.02729447 0.03505986
-0.0362199 0.013961113 0.01892642 -0.0332849 -0.022224914 -0.018543012 -0.08060598 -0.025935331
-0.0025009569 0.009738849 -0.012668902 0.015657404 -0.0158824 0.022135232 0.020248853 0.038883463
0.049868036 -0.004955189 0.009723171 -0.021601819 0.019798266 0.009965443 -0.026565082 1.5873707e-33
0.08016037 -0.016510209 -0.00815524 0.047466397 -0.009259687 0.01731714 -0.002173273 -0.011665874
0.030506851 0.013905982 0.012960443 -0.02011589 -0.011193559 -0.028641999 -0.042750478 -0.050631065
-0.044101737 0.016840672 0.026271364 0.020896232 -0.027179543 -0.022607056 -0.029097917 0.0056164158
-0.011500673 0.01457844 0.007284628 0.007543452 0.012103858 0.030179378 -0.061339833 0.040131614
-0.012275105 -0.037645478 -0.040138114 0.024898091 0.009657148 0.021243915 0.011355523 -0.051608287
0.020598225 0.026904328 -0.007325408 0.032049257 0.020859515 0.038752273 -0.014969254 -0.035637625
-0.06624103 0.028873531 -0.011747641 0.0075945896 0.0206879 -0.00710898 -0.05736856 -0.038734853
0.03297259 -0.008912105 -0.020947285 -0.0008792895 0.015424136 -0.019567082 -0.040646274 -0.051705536
0.012287305 0.021350093 -0.029991318 -0.048746195 -0.020071771 -0.00092626706 -0.041647203 0.0026472325
0.017721627 -0.018546686 0.010533289 -0.015115048 -0.009798068 -0.008885123 -0.03772085 -0.069814704
0.03888298 -0.031374313 0.008824153 0.03952438 0.009343476 -0.012017966 -0.025477804 0.01094421
-0.077809304 0.061568253 0.014440831 0.01978843 0.069827735 0.016774744 -0.06685666 -2.0926145e-33
0.010909058 -0.03136618 -0.022519795 0.017185912 0.008587872 -0.0006062586 0.0175551 0.014419343
-0.0024524976 -0.00746374 0.015754469 0.00063078897 0.034565523 0.045090437 0.0034369056 -0.021445446
0.036172897 0.02124051 -0.0032707748 0.0067511536 -0.020224363 0.011327321 -0.025608879 -0.005077062
0.034297563 0.052204754 0.0077585117 -0.015661458 -0.01499278 -0.03328297 -0.027624318 0.011479597
00000000: 63c2 723d 7359 9ebb 764c 973c b755 8e3d
00000010: 62ca 3a3d 7d01 2fbc 67ec 923d 377c 8e39
00000020: 3b40 6b3c c5b6 6ebd 841a 00bd c088 57bc
00000030: d934 103c 2f44 0bbd 42e3 ecbc 434f 113c
00000040: cfd0 02bc ec3d 09bd 78d7 3cbd 3a7a 793d
00000050: 921e 70bd 6985 6f3c a707 8bbc 5122 373c
00000060: 0fcf 30bd 42d5 6a3d 81a4 d8bb 2ca7 ffbc
00000070: 5569 243d 475e a53b 5fc3 b73c e224 52bc
00000080: 6b5b 793b 087f 7cbc 9664 0b3d e047 39bc
00000090: 451c 0bbc 91ab 753c a985 5e3c 9d9a 8cbb
000000a0: 6fb7 3abc bb6c 8abc 5cd5 163c 7a06 30bc
000000b0: 9eff 04bc 25a7 d2bc c172 55bc 0e65 c2bc
000000c0: 811e ed3c 924b 24bd 7f01 26bd 7857 7bbd
000000d0: cfe9 debb 60d3 3dbd e3f3 4c3d f885 843c
000000e0: a8bf a43c 7c57 ea3c 48a0 a8bb 3d58 983c
000000f0: 9b6b 0bbd 1bf1 ac3c 81bd 3fbb 9d5c a5bb
00000100: bc84 063d 153d 763d dd69 d7ba 6687 c13b
00000110: 648c 393d 0ff6 2f3d a5b3 feba 3c62 26bd
00000120: 81fa 583a a53b 88bc 7b5b bf3c 7537 a53c
00000130: 4ee1 bd3c ddf0 69bd e04f 233d 10d7 063d
00000140: c330 f33c 1ba7 883c 8a9c ebbb 4818 01bd
00000150: 3394 fbbb 4622 02bd 58af 1c3d bcfb a33b
00000160: 2470 663c f4c2 143d 24ad d33c dafd 78bd
00000170: 94f7 9b3a ef4b 0a3d 0acc c33c 5801 313d
00000180: 5252 68bd 374f 6c3c 0ce0 cebd 1cd5 5b3d
00000190: 6350 41bc 5cf8 b73c a798 df3c ee9a 0f3d
000001a0: 515b 14bd 27bd 643c 940b 9b3c bf55 08bd
000001b0: 0611 b6bc 84e7 97bc bf14 a5bd 5576 d4bc
000001c0: 18e7 23bb b18f 1f3c 3a91 4fbc f543 803c
000001d0: cf1b 82bc f254 b53c ece0 a53c 4444 1f3d
000001e0: 6d42 4c3d 235f a2bb ef4d 1f3c 4cf6 b0bc
000001f0: f92f a23c 1946 233c 049f d9bc a4df 0309
00000200: 1f2b a43d 6b40 87bc 8e9d 05bc 206c 423d
00000210: f1b5 17bc addc 8d3c 786d 0ebb 3922 3fbc
00000220: 81e9 f93c ead5 633c 0a58 543c 14ca a4bc
00000230: 3065 37bc a0a2 eabc 201b 2fbd 8562 4fbd
00000240: 06a4 34bd 73f5 893c 0b37 d73c 932e ab3c
00000250: a2a7 debc 6f32 b9bc c15e eebc e909 b83b
00000260: 526d 3cbc 69da 6e3c e4b3 ee3b 102f f73b
00000270: 434f 463c be3a f73c 7a3f 7bbd 0c61 243d
00000280: 861d 49bc 2532 1abd dd67 24bd 15f7 cb3c
00000290: 0439 1e3c b807 ae3c 840c 3a3c 3663 53bd
000002a0: 9cbd a83c 7766 dc3c fa09 f0bb 1546 033d
000002b0: 93e1 aa3c b4ba 1e3d 9a41 75bc c2f8 11bd
000002c0: 61a9 87bd 2f88 ec3c 2d79 40bc 09dc f83b
000002d0: ac79 a93c 72f2 e8bb 4cfb 6abd 70a8 1ebd
000002e0: 440e 073d 1404 12bc a499 abbc 1f80 66ba
000002f0: 84b5 7c3c 254b a0bc b57c 26bd 2fc9 53bd
00000300: b150 493c 64e6 ae3c 5ab0 f5bc 17aa 47bd
00000310: 8e6d a4bc bbd0 72ba 4296 2abd 317d 2d3b
00000320: f22c 913c 38ef 97bc d193 2c3c 1ba5 77bc
00000330: 1388 20bc e892 11bc 2e81 1abd 03fb 8ebd
00000340: c243 1f3d 5a82 00bd 2e93 103c 51e4 213d
00000350: 6115 193c 01e7 44bc d4b6 d0bc 584f 333c
00000360: 7c5a 9fbd fe2e 7c3d 3c99 6c3c 581b a23c
00000370: d801 8f3d 306b 893c 25ec 88bd fdd8 2d89
00000380: e8bb 323c d379 00bd 6f7b b8bc 78c9 8c3c
00000390: 25b4 0c3c 53ed 1eba b7cf 8f3c 1c3f 6c3c
000003a0: 15ba 20bb 6492 f4bb 840f 813c 885b 253a
000003b0: 9494 0d3d c0b0 383d b53d 613b 5cae afbc
000003c0: 082a 143d 9400 ae3c 7f5a 56bb c838 dd3b
000003d0: 90ad a5bc 3a96 393c b6c9 d1bc 7c5d a6bb
000003e0: 9a7b 0c3d a7d4 553d 1d3b fe3b 754c 80bc
000003f0: 47a4 75bc b953 08bd 654c e2bc eb14 3c3c
