topic_modeling/bert_topic/results/wor_all_words/miniLM/my_model/topic_embeddings.safetensors (safetensors, 52312 bytes, 1 tensors)

topic_embeddings f4 [34, 384]
0	0x3d73f760	0.059562087
1	0xba667a9c	-0.0008792074
2	0x3c9985bd	0.01874053
3	0x3db7cb50	0.08974326
4	0x3d26926f	0.040666994
5	0xbb4d189c	-0.0031295186
6	0x3da49f86	0.08038239
7	0x3b9525a5	0.0045516067
8	0x3c6beda3	0.014399919
9	0xbd749169	-0.059708986
10	0xbd2b7f80	-0.04186964
11	0xbc6cca5a	-0.014452541
12	0x3c86ada9	0.01644023
13	0xbd2e5a38	-0.042566508
14	0xbd344f0b	-0.044020694
15	0x3ccbe32b	0.024888596
16	0xbc4b0162	-0.012390466
17	0xbd150e1c	-0.03639041
18	0xbd0f11d7	-0.034929123
19	0x3d85639b	0.06513139
20	0xbd8f7775	-0.070052065
21	0x3c91d76a	0.017802913
22	0xbc3184fb	-0.010834928
23	0x3c2a4562	0.010392519
24	0xbd0fd8d9	-0.03511891
25	0x3d766d31	0.060162727
26	0xba614310	-0.0008593062
27	0xbc930787	-0.017947925
28	0x3d593d78	0.053037137
29	0x3aea6dfb	0.001788556
30	0x3c6a8c43	0.014315668
31	0xbc92c43b	-0.017915836
32	0x3be5fa63	0.007018374
33	0xbc9c0fc5	-0.019050488
34	0x3d326e3f	0.04356217
35	0xbcbf8f97	-0.023383899
36	0xba9b632f	-0.001185512
37	0x3c72cadc	0.014818873
38	0x3c4fb7e6	0.012678122
39	0x3bd71439	0.00656369
40	0xbc1621ad	-0.009163302
41	0xbc6dff66	-0.014526224
42	0x3bd06e86	0.0063608317
43	0xbc6f1897	-0.014593265
44	0xbc9e33b2	-0.01931176
45	0xbcd1180d	-0.025524164
46	0xbc82ce71	-0.01596758
47	0xbcae5245	-0.021279464
48	0x3cde22d5	0.027116219
49	0xbd39a8ad	-0.045326877
50	0xbcedd8e4	-0.029034086
51	0xbd7dab10	-0.061930716
52	0xbc3af77a	-0.011411542
53	0xbd575c21	-0.052578095
54	0x3d693a84	0.05694057
55	0x3c46f95f	0.012144416
56	0x3cd0297a	0.025410403
57	0x3d0a3933	0.033745956
58	0xbad24850	-0.0016043279
59	0x3cbd3aa5	0.023099253
60	0xbd4c7d2a	-0.049924053
61	0x3d06ce20	0.03291142
62	0xbba1e829	-0.0049410057
63	0xbb046ae1	-0.0020205306
64	0x3d351eee	0.04421895
65	0x3d77f091	0.060532156
66	0xbb8739b5	-0.0041267523
67	0xbbb1e4a6	-0.0054288683
68	0x3d60b09a	0.05485592
69	0x3d1aa921	0.03775895
70	0x3a8f59f1	0.0010936839
71	0xbd13186b	-0.03591196
72	0x3c315f5b	0.010825957
73	0xbcb8b1e6	-0.022545766
74	0x3ca3e6a0	0.020007432
75	0x3c75161f	0.014958887
76	0x3d0490bf	0.032364603
77	0xbd4dc4e0	-0.050236583
78	0x3d357581	0.044301514
79	0x3cddc67c	0.027072184
80	0x3d52b4fb	0.051442128
81	0xbbeb437a	-0.0071796747
82	0xbb81a9ae	-0.003956995
83	0xbd3565b8	-0.04428646
84	0xbc0b9edd	-0.008521763
85	0xbd20e775	-0.039283235
86	0x3d23d5fc	0.039998993
87	0xbaf1eba0	-0.0018457063
88	0x3bb8e2bf	0.0056422646
89	0x3d40e538	0.0470936
90	0x3d0b73b7	0.0340459
91	0xbd8291f9	-0.06375498
92	0xba4a732b	-0.000772285
93	0x3d131a07	0.035913493
94	0x3cf07a33	0.029355144
95	0x3d374467	0.044742968
96	0xbd5d0b49	-0.05396584
97	0x3c049cdc	0.008094039
98	0xbdf3129d	-0.118687846
99	0x3d898316	0.06714456
100	0xbc275549	-0.010213205
101	0x3d11f326	0.035632275
102	0x3d02ba9a	0.03191624
103	0x3d00cee2	0.0314473
104	0xbd4553bd	-0.048175562
105	0x3b5d6b3b	0.0033785838
106	0x3cd8d9d5	0.026471058
107	0xbd2aeb2d	-0.041728187
108	0xbcb4fd82	-0.022093538
109	0xbc8430a4	-0.016136475
110	0xbdcb63a6	-0.09931116
111	0xbd1c7da6	-0.038205765
112	0xbb29a726	-0.0025886982
113	0x3c45468a	0.012040744
114	0xbca27542	-0.019831304
115	0x3c0f92ec	0.008763056
116	0xbcb6b55a	-0.022303272
117	0x3c862ccb	0.01637878
118	0x3c807f5e	0.015685733
119	0x3cf1c98d	0.029515052
120	0x3d8a0c0a	0.067405775
121	0xbbc54ff9	-0.0060214964
122	0xbb07b2b8	-0.002070589
123	0xbca72c68	-0.020406917
124	0x3d017842	0.031608827
125	0x3c92c0c9	0.017914193
126	0xbd15b244	-0.03654696
127	0x09063fda	1.6159686e-33
128	0x3dc3039a	0.09522171
129	0xbc3b11cf	-0.01141782
130	0xbc7d97d5	-0.015478094
131	0x3d4404df	0.047856208
132	0xbc2d75d3	-0.0105871735
133	0x3cd19575	0.025583962
134	0x3b3bdc7e	0.002866536
135	0xbcb41923	-0.021984642
136	0x3ce4e1b2	0.027939651
137	0x3c65583e	0.013998089
138	0x3ad34bdb	0.0016120629
139	0xbc8bf784	-0.017085798
140	0xbb9f74fb	-0.00486624
141	0xbcaa8f76	-0.02082036
142	0xbd2b8211	-0.041872088
143	0xbd6dde2b	-0.058073204
144	0xbd22b80b	-0.0397263
145	0x3bd107c2	0.0063790986
146	0x3d044aa2	0.032297738
147	0x3bec1697	0.0072048414
148	0xbd08b327	-0.033373978
149	0x3b903cec	0.0044017937
150	0xbceb7293	-0.028741157
151	0x3c838fea	0.016059835
152	0xbc523c02	-0.01283169
153	0x3c663b9d	0.014052299
154	0xbb477382	-0.0030433838
155	0x3c0df9ec	0.008665543
156	0x3ca0235c	0.01954811
157	0x3d1fec63	0.039043795
158	0xbd87d7c2	-0.066329494
159	0x3ce9a1dd	0.028519565
160	0xbc6a2a6a	-0.014292339
161	0xbd0c3da8	-0.034238487
162	0xbd18d141	-0.037308935
163	0x3c19e30d	0.009392512
164	0x3c52a823	0.01285747
165	0x3c30a800	0.010782242
166	0x3c1e5939	0.009664827
167	0xbd64398e	-0.05571895
168	0x3cfc19da	0.030774046
169	0x3cc17cf0	0.023619145
170	0xbb7a2881	-0.0038171115
171	0x3d28dbce	0.041225247
172	0x3bc71608	0.0060756244
173	0x3d42b1d7	0.047532883
174	0xbcbf8d7b	-0.023382893
175	0xbd149766	-0.036277197
176	0xbd7d9905	-0.06191351
177	0x3d1180f6	0.035523377
178	0xbbb0509d	-0.0053807036
179	0x3c1d3585	0.00959528
180	0x3c8902e1	0.016725006
181	0xbb2c116e	-0.0026255506
182	0xbd51feef	-0.051268514
183	0xbd1661ad	-0.036714245
184	0x3d133c20	0.03594601
185	0xbc54ac39	-0.012980514
186	0xbcdd5249	-0.027016776
187	0xbc35aafc	-0.011088129
188	0x3c4865bf	0.012231289
189	0xbca0a7d3	-0.019611275
190	0xbcfe4296	-0.03103761
191	0xbd75bd4e	-0.05999499
192	0x3cb6cac4	0.022313483
193	0x3ced44a0	0.028963387
194	0xbd384799	-0.044990156
195	0xbd6c438c	-0.057681605
196	0xbc9f2c76	-0.01943038
197	0xbc00368e	-0.007825507
198	0xbd75e9d0	-0.060037434
199	0xbb402b19	-0.0029322563
200	0x3d009478	0.03139159
201	0xbca7eb74	-0.020498015
202	0x3c3b35c1	0.01142639
203	0xbcd6069a	-0.026126195
204	0xbba02fd9	-0.0048885164
205	0xbab0c3d0	-0.0013486091
206	0xbd1e4813	-0.038642954
207	0xbdbd1dab	-0.09234174
208	0x3d278280	0.04089594
209	0xbd4501b5	-0.04809733
210	0x3b3b81e8	0.0028611366
211	0x3d61a082	0.055084713
212	0xbb0bc28f	-0.0021325683
213	0xbc18b8ac	-0.009321373
214	0xbd01fde5	-0.031736273
215	0x3ca43b93	0.020047938
216	0xbdaa0a36	-0.08302729
217	0x3d6ed990	0.058312953
218	0x3cba231a	0.022721816
219	0x3c2c3330	0.010510251
220	0x3d8b563c	0.06803557
221	0x3ca5b679	0.020228611
222	0xbd817a3f	-0.06322145
223	0x892265c9	-1.95479e-33
224	0x3ca8067a	0.0205109
225	0xbd1abf29	-0.03777996
226	0xbd1256b6	-0.035727225
227	0x3c6b75e6	0.014371371
228	0x3bdc2533	0.0067183017
229	0x3b6930dd	0.0035582103
230	0x3cb34160	0.02188176
231	0x3c9f67bf	0.01945865
232	0x3b04089f	0.002014674
233	0xbc97e401	-0.018541338
234	0x3cc3ec23	0.02391631
235	0x3c1796c5	0.009252255
236	0x3cfd985f	0.030956445
237	0x3d282b08	0.041056663
238	0x3c7987c9	0.015230128
239	0xbcb78716	-0.022403281
240	0x3d0708cc	0.032967374
241	0x3cf96620	0.030444205
242	0x3b83ef2d	0.0040263147
243	0x3bd83c61	0.0065989946
244	0xbc740231	-0.014893101
245	0x3ae98d3c	0.001781858
246	0xbcfc2817	-0.030780835
247	0xbc3298d7	-0.010900698
248	0x3d30f99c	0.043206796
249	0x3d597d9a	0.0530983
250	0x3c05bcb1	0.008162663
251	0xbc3057b1	-0.010763095
252	0xbbe6975f	-0.007037088
253	0xbcd042ee	-0.02542254
254	0xbcf6b017	-0.030113263
255	0x3c0c6d5a	0.008570993
