topic_modeling/bert_topic/results/dep_all_words/mpnet/my_model/topic_embeddings.safetensors (safetensors, 9304 bytes, 1 tensors)

topic_embeddings f4 [3, 768]
00000000: fc91 ecbb e381 57bc c0b7 5dbb 6965 cabc
00000010: 8858 a0bc 3c19 04bc 9cad 67bd 7634 8eba
00000020: bfa1 00bd 7b58 633c dbde 8a3c eab3 cbbc
00000030: 6a31 7bbc 1c91 bd3c a7b2 d9bc dbb6 78bc
00000040: 8c8d 143a a390 de3c 7211 dbbc c00d 9bbc
00000050: 21e0 5bbc 18e9 d139 2276 34ba b2f7 9cbb
00000060: fcf7 623c 2fb1 f1bb 7af7 7dbc f6cc cf3c
00000070: 358a a0bc 6802 19bd 19b2 91bc 905b 2e3c
00000080: 3a6c 0fbc b084 ce3c 4c35 e035 f8b9 87bc
00000090: d8ce 90bc f509 afbc bb29 04bd 0117 6cbc
000000a0: 740e dabb 9cd9 c9ba 100f e83c 16f2 4abc
000000b0: 269e 13bd c808 c7bc 627f 023c a09b 1d3b
000000c0: a943 5f3c 048c 5fba 679e ed3b 320c 173d
000000d0: 402f 3d3a ebd9 a6bc bc52 323d f06f f3bc
000000e0: feac 1d3b 14fc a63c c045 9539 649e b8bc
000000f0: dec5 0cbd 9c64 e8bb af7c 85bc f7d8 a23b
00000100: 5c41 5b3b fb1c 753c d182 2c3d d14b 2dbd
00000110: 3edb 0f3c 7dce 07bc fad8 e8bc 5392 8c3c
00000120: a962 023c f67a ddbb d694 46bc 75c6 693b
00000130: 0ab0 dabc 757c 4cbc eb8d 1c3c 4c7c daba
00000140: 19f2 6e3c d166 0b3d 809c 32bb 8be4 5e3c
00000150: 6313 f53c ee83 363c 3c97 9ebb 287c 7dbc
00000160: ce19 763c 80b8 32bc 8d05 603b 12bc 25bd
00000170: 3ab1 8c3c 55db 863a 4015 5bbc ffee 4e3c
00000180: 1557 223c 909f e1bc 3a10 68bc 86e5 09bd
00000190: 9adc 87bb c35f d23c 222c 853c fb69 b8bb
000001a0: cf7a 003c 9ab8 9d3b 7720 91bb f4ef b5bc
000001b0: fbad 933c 4141 773d 31ac a33c 878c 00bb
000001c0: ee2f c6bc b6e5 0e3d 00c4 203c cfaa 35bc
000001d0: 9db8 863b cd29 f2bc cb09 84bc 8449 883c
000001e0: 523e cabc a653 f83b adf3 2b3c 4e51 463b
000001f0: 04aa a03c 3a28 e23c c032 9a39 1ffd 9c3c
00000200: ca4f dd3c dfc7 d3bc 7e4a 74bb 8a81 4cbc
00000210: 7a8e c1bc 7656 04bd d341 bf3c 1e20 473d
00000220: 705c e33b bf5a 27bc e843 26bc d4d2 d3ba
00000230: 3f67 bb3c c844 8abb 66bb 623c 12b3 82bb
00000240: d069 34bd c0e6 b8b9 34d9 233d 76e7 2ebd
00000250: 9733 e93b 8036 4dbc 4eec 33bc acca 913c
00000260: f861 34bd afbc cabc ae3b a7bc d98e 993c
00000270: dda2 c6bc 493b 81bc c05d b03b 4e62 333d
00000280: 5b8a ab3b 6bfe 3f3c 637e 053d fe9c f5bc
00000290: 1075 5d3c 0f9f 163d 30f6 013d 80a4 d537
000002a0: 6b3c 50bd 34ee 01bd 5aed 643b 861c 31bc
000002b0: 4280 103c c992 2f3b 4d21 453c 8389 83bb
000002c0: 6e3a e4bc 00cd 63b8 a1cd 49bd 40ad f7b9
000002d0: 7a1b 94bc cc99 fcbb d48e 7dbc c137 9c3c
000002e0: a431 ccbc 48de 2b3c 2383 dfbc 28fa 6d3b
000002f0: 9b3a b7bc 7efd 39bc ec4a 4ebc d7ae 0f3d
00000300: 1926 19bc 2729 993c 2a39 b5bc 0000 683c
00000310: ebc2 973b e902 2fbc 3934 2c3c 3846 27bc
00000320: 3058 9fbb dce8 edbc 2073 2b3d 825b 6abd
00000330: 6ee2 5e3b 242e 3e3c 65bb 71bd c855 4fbc
00000340: 31c5 a2bc 7ad1 903c 1baa 85bc a2e2 a83c
00000350: e0ec e93b 6254 47bb f78b 4f3b 7d6e 033d
00000360: f61d 823c 88bc 083b 71ed 7ebd 7837 8f3c
00000370: 1c33 7abc eec2 3a3d 2043 af3b 6c2e 6c3c
00000380: 0c99 a33b 04a3 12bc e26f d23a caa5 af3b
00000390: 123f 013d daf6 e2bb 9afb 703c 97ce a83c
000003a0: df2a 923c 0a8e 963c 2e2a 4dbd 70e8 bd3b
000003b0: bed7 293c 3627 58bc 0b22 8f3a 205d 0fbb
000003c0: ca7e 5f3d 2e67 8c3b 06e7 5fbc c697 82bc
000003d0: 1fa1 823d 2809 a03c 5d1f 1abd fe21 d03b
000003e0: b370 d03b 368b 0abc 8e9a cdbb b43f a73c
000003f0: a6bd 18bc 0647 bbbc b83e df3c 9af1 aabc
-0.007219551 -0.013153526 -0.0033831447 -0.02470656 -0.019573465 -0.008062657 -0.05656205 -0.0010849375
-0.031404253 0.013876076 0.016951969 -0.024866063 -0.015331605 0.023140483 -0.026574446 -0.015180315
0.0005666844 0.027168578 -0.026741717 -0.018927455 -0.013420136 0.00040037255 -0.0006884058 -0.00479027
0.013853069 -0.0073758583 -0.015500898 0.025366288 -0.019597152 -0.03735581 -0.017785119 0.010641947
-0.008753831 0.025209755 1.6704812e-06 -0.016568169 -0.017676756 -0.021367053 -0.03226636 -0.014409781
-0.006654555 -0.0015399936 0.028327495 -0.012386819 -0.036039494 -0.02429618 0.007964941 0.0024049059
0.013626971 -0.0008527639 0.007251549 0.036876865 0.00072168186 -0.020367583 0.043535933 -0.029716462
0.002405941 0.020383872 0.00028471462 -0.022536464 -0.03436839 -0.0070920717 -0.016294805 0.004969712
0.0033455705 0.014960523 0.042116944 -0.042308632 0.008780299 -0.008288977 -0.028423775 0.017159617
0.007958093 -0.006759043 -0.012120446 0.0035671268 -0.02669527 -0.012480845 0.00955532 -0.0016669123
0.014584088 0.0340336 -0.0027253926 0.013604294 0.02991647 0.011139853 -0.004839806 -0.015471496
0.015020801 -0.010908246 0.0034182996 -0.04046256 0.017174352 0.0010288755 -0.013371766 0.012630223
0.009908457 -0.027541906 -0.014164025 -0.033666156 -0.004146171 0.025680428 0.016256396 -0.005627868
0.00784178 0.004813266 -0.004428919 -0.022209145 0.018027296 0.060364965 0.019979568 -0.001961501
-0.024192777 0.03488704 0.009812355 -0.011088087 0.004111363 -0.029560948 -0.01611795 0.016636617
-0.02468792 0.007578331 0.010495109 0.0030260864 0.01961232 0.027607072 0.0002941098 0.019163666
0.027015585 -0.025852142 -0.0037275846 -0.012482056 -0.023627508 -0.032309018 0.023346817 0.048614614
0.0069385096 -0.010214507 -0.010148026 -0.0016160854 0.02287638 -0.004219625 0.013838625 -0.003988632
-0.044046223 -0.00035267137 0.040002063 -0.042701207 0.0071167457 -0.012525201 -0.010981632 0.017796837
-0.044038743 -0.024748174 -0.0204142 0.018744873 -0.024247581 -0.01577534 0.0053822696 0.043794923
0.005234999 0.011718373 0.032591235 -0.029982086 0.013516679 0.036772784 0.031728923 2.546818e-05
-0.05083887 -0.03172131 0.0034931512 -0.010810023 0.008819642 0.0026790372 0.012031865 -0.0040141954
-0.027859893 -5.431194e-05 -0.04926837 -0.00047240593 -0.018079508 -0.0077087637 -0.015475947 0.019069554
-0.024926014 0.010490008 -0.02728421 0.0036312435 -0.022366812 -0.011351941 -0.012591105 0.03507885
-0.009347462 0.01869638 -0.022121985 0.014160156 0.0046313903 -0.010681846 0.010510498 -0.010209613
-0.0048628077 -0.0290417 0.04185784 -0.057216175 0.0034009474 0.0116076805 -0.059016604 -0.012654729
-0.019869419 0.017678011 -0.016316464 0.02061588 0.0071388334 -0.0030415286 0.003166912 0.03208779
0.015883427 0.0020864327 -0.06223816 0.017482504 -0.0152709745 0.045596056 0.005348578 0.014415365
0.00499261 -0.008949999 0.0016055072 0.00536034 0.03155429 -0.0069263997 0.014708424 0.020606322
0.017842708 0.018378276 -0.050089054 0.005795531 0.010366378 -0.013192942 0.001092018 -0.0021875575
0.054564275 0.004284761 -0.01366592 -0.015941512 0.06378388 0.019535616 -0.037627567 0.0063517084
0.006361091 -0.008456042 -0.006274528 0.020416118 -0.009322559 -0.022861015 0.027251586 -0.020867158
