topic_modeling/bert_topic/results/wor_all_words/mpnet/my_model/topic_embeddings.safetensors (safetensors, 83032 bytes, 1 tensors)

topic_embeddings f4 [27, 768]
0.012660891 0.009588893 -0.0029945099 -0.03277832 0.010260039 0.020475917 -0.051511 0.017461782
-0.0082375305 -0.0073450874 0.018590158 -0.0016426991 -0.043466225 -0.016988158 -0.023059973 -0.022370178
0.0047009904 0.029911982 0.021472758 -5.9012513e-05 -0.012615824 0.01552127 0.001054874 0.006160735
0.024248697 -0.039533693 0.014522534 0.025961798 0.01493973 -0.027015084 0.007254383 0.02743138
-0.0031021666 -0.013379509 1.6383092e-06 0.00046968524 -0.031707272 -0.02028511 0.0074373283 -0.013400619
0.03681044 -0.026692512 0.03116686 0.0006365456 -0.01920363 -0.050439224 0.013330849 0.045115728
0.027888715 0.016216345 -0.00511641 0.00977719 -0.058177795 -0.035027295 0.049011175 -0.0007804681
0.0022920046 -0.03806556 0.0665526 -0.027444037 -0.016543426 -0.037024908 -0.029917171 0.0069207284
0.0061946157 -0.0064657643 0.016968682 -0.023415519 -0.0003659127 0.017516026 -0.052822143 0.01557001
0.031786982 0.020110937 -0.010032981 -0.003114669 -0.00065018865 0.0051216385 0.011002621 -0.0021489377
0.022371035 0.06706573 0.0063676992 0.017120967 0.028871154 0.014986596 0.001656133 -0.03389265
0.028983772 -0.033926032 -0.021043422 -0.022647807 0.024636485 -0.003449439 -0.023521185 -0.013041718
-0.021162633 -0.037031632 -0.02994678 -0.020492608 -0.06370323 0.011249554 -0.032491602 -0.021032907
0.018592998 -0.035753865 0.010227607 -0.03784325 -0.023580734 0.047610067 0.009338143 0.034732908
-0.038613543 0.04021032 0.028921014 -0.03905889 -0.037986528 0.0023198433 -0.023210965 0.007860479
-0.04397567 0.024290932 0.016344337 0.025420647 0.02342365 7.886898e-05 -0.022652254 0.00052539806
0.021664085 -0.031242015 0.016868293 0.002747415 -0.012961759 -0.031135596 0.011616062 0.022599801
0.025586093 0.010971012 -0.042461827 0.008147401 0.000606179 -0.014006513 -0.010391921 0.015338611
-0.027920164 0.009058661 0.032566484 -0.041822746 0.004598265 -0.023906123 -0.00023946592 0.015448182
-0.030346269 -0.012757288 -0.0035827304 0.02338343 0.053874396 -0.028471291 -0.007975799 0.020766258
0.009935493 -0.017203031 0.06328041 -0.03473045 0.0033480055 0.0053306567 0.0482316 -0.023184408
-0.017953737 -0.016824784 -0.030098286 -0.001475638 0.018848496 0.04840725 0.00787134 0.006269289
-0.015084564 0.014490061 -0.030608319 -0.022042267 -0.0066383155 -0.009770537 -0.023883644 0.012014622
-0.0049803345 0.009988291 -0.014316678 0.0025312577 -0.035453536 -0.022314806 -0.03820693 0.023500273
-0.040349636 0.02600127 -0.017366212 -0.019646894 0.010733854 -0.02439374 0.008400184 -0.029419342
-0.024214782 -0.0047554853 0.015242413 0.020037051 -0.006969234 -0.00047742814 -0.03237693 -0.020558143
0.016590925 0.010251081 -0.008549902 0.02298807 0.0039176284 -0.012515431 0.0021056826 0.036449224
0.015914882 -0.019222636 -0.034381248 0.027031787 -0.0143097425 0.0084741665 -0.011469633 0.0031563335
0.020797983 -0.03674239 0.025682164 0.005016363 0.018714538 -0.0011035459 0.002868083 0.036544107
0.021006437 -0.0047309105 -0.037240338 0.023078263 0.021369502 0.019787064 -0.024192078 0.01950019
0.03275 -0.021465644 -0.018392969 -0.011013383 0.055730797 0.017226838 0.01582643 0.023101075
0.033576164 0.015634682 0.025639717 0.005793444 -0.00026489084 -0.007049025 0.023880424 -0.014484291
00000000: a06f 4f3c bb1a 1d3c 8a3f 44bb 8f42 06bd
00000010: b919 283c 1cbd a73c 33fd 52bd 030c 8f3c
00000020: b5f6 06bc 0faf f0bb 634a 983c d64f d7ba
00000030: a409 32bd c02a 8bbc 45e8 bcbc aa41 b7bc
00000040: c40a 9a3b f909 f53c a3e7 af3c 3484 77b8
00000050: 9ab2 4ebc ed4c 7e3c b343 8a3a fedf c93b
00000060: 34a5 c63c 15ee 21bd ecef 6d3c d6ad d43c
00000070: c5c5 743c bd4e ddbc 2db6 ed3b c6b7 e03c
00000080: b84d 4bbb ba35 5bbc e0e3 db35 1640 f639
00000090: 7cdf 01bd f62c a6bc d5b4 f33b 458e 5bbc
000000a0: 8bc6 163d 41aa dabc a551 ff3c dadd 263a
000000b0: ee50 9dbc 5c99 4ebd a269 5a3c 45cb 383d
000000c0: e076 e43c 24d8 843c 8fa7 a7bb 8230 203c
000000d0: d74b 6ebd c878 0fbd f1bf 483d 5498 4cba
000000e0: 7535 163b a2ea 1bbd bb4c 883d 51d2 e0bc
000000f0: 1486 87bc 6ea7 17bd db14 f5bc 47c7 e23b
00000100: 34fc ca3b c3de d3bb e801 8b3c e7d1 bfbc
00000110: f9d7 bfb9 c57d 8f3c 085c 58bd 5b19 7f3c
00000120: 1133 023d b1bf a43c 5f61 24bc 791f 4cbb
00000130: 6c71 2aba 6bd3 a73b 5644 343c 31d5 0cbb
00000140: 7643 b73c c259 893d 22a8 d03b 4541 8c3c
00000150: 3383 ec3c 578a 753c 9a12 d93a 05d3 0abd
00000160: 606f ed3c 06f6 0abd 4163 acbc e587 b9bc
00000170: 74d2 c93c fc0f 62bb 80af c0bc eeac 55bc
00000180: 425d adbc 7bae 17bd f352 f5bc 1de0 a7bc
00000190: d776 82bd 0d50 383c ea15 05bd 344d acbc
000001a0: 5850 983c a572 12bd b191 273c 8601 1bbd
000001b0: 622c c1bc c602 433d 03ff 183c 1844 0e3d
000001c0: 3c29 1ebd 94b3 243d c3eb ec3c 37fc 1fbd
000001d0: c397 1bbd 8308 183b ec24 bebc 3dc9 003c
000001e0: d51f 34bd c7fd c63c 8fe4 853c f63e d03c
000001f0: f4e2 bf3c 7666 a538 3891 b9bc deba 093a
00000200: e178 b13c 41ef ffbc 602f 8a3c fa0d 343b
00000210: 8f5d 54bc 1410 ffbc 4c51 3e3c 3823 b93c
00000220: ed99 d13c c2bf 333c 74ec 2dbd ad7c 053c
00000230: fce7 1e3a 937b 65bc e042 2abc cc4e 7b3c
00000240: d4b8 e4bc c76a 143c 6f64 053d 544e 2bbd
00000250: 0bad 963b c6d6 c3bc 2519 7bb9 5f1a 7d3c
00000260: bd98 f8bc f203 51bc 3ecc 6abb 9b8e bf3c
00000270: 66ab 5c3d a03c e9bc edac 02bc 001e aa3c
00000280: 7ac8 223c 5fed 8cbc 2999 813d 8441 0ebd
00000290: 366a 5b3b caac ae3b 808e 453d 3aed bdbc
000002a0: b713 93bc 21d4 89bc ae90 f6bc 326a c1ba
000002b0: 2968 9a3c ae46 463d cbf6 003c 9c6e cd3b
000002c0: 3f25 77bc b967 6d3c 4cbe fabc fc91 b4bc
000002d0: 3a86 d9bb 9a14 20bc a2a7 c3bc fad8 443c
000002e0: 1332 a3bb eea5 233c 8090 6abc 75e3 253b
000002f0: ba37 11bd 8acd b6bc df7e 1cbd a583 c03c
00000300: a945 25bd 9e00 d53c 9643 8ebc 86f2 a0bc
00000310: 0cdd 2f3c 61d5 c7bc eda0 093c d500 f1bc
00000320: 145e c6bc e7d3 9bbb 50bb 793c be24 a43c
00000330: 2c5e e4bb 524f fab9 ac9d 04bd 8d69 a8bc
00000340: b1e9 873c 26f4 273c e314 0cbc 7a51 bc3c
00000350: 735f 803b 860d 4dbc 7eff 093b c84b 153d
00000360: ed5f 823c ca78 9dbc 5ad3 0cbd c471 dd3c
00000370: 6973 6abc 3bd7 0a3c 21eb 3bbc 7dda 4e3b
00000380: 8860 aa3c 307f 16bd 6763 d23c 4e60 a43b
00000390: 3b4f 993c dba4 90ba 73f6 3b3b 46af 153d
000003a0: b115 ac3c c105 9bbb 5389 18bd a00e bd3c
000003b0: 180f af3c 7b18 a23c 772e c6bc ddbe 9f3c
000003c0: dd24 063d b8d8 afbc daac 96bc 7a71 34bc
000003d0: fa45 643d 4c1f 8d3c 6ea6 813c 773e bd3c
000003e0: 2987 093d 4e14 803c 620a d23c eed6 bd3b
000003f0: 0ce1 8ab9 82fb e6bb e1a0 c33c 854f 6dbc
