topic_modeling/bert_topic/results/dep_text/mpnet/my_model/topic_embeddings.safetensors (safetensors, 76888 bytes, 1 tensors)

topic_embeddings f4 [25, 768]
0.014841799 0.020678926 -0.01878116 -0.040451676 0.028681811 -0.0038043775 -0.0325851 -0.00046501483
0.03232791 0.0038949193 0.029959287 0.037229862 -0.03361497 -0.010411079 -0.0013823637 -0.0023820498
-0.023362894 0.02293444 0.0073386785 0.0023770696 0.0020454875 0.015222805 -0.011673634 0.006672423
0.0044076242 -0.0011153367 0.022375997 0.02769947 0.024331056 -0.009878331 -0.008469513 0.010085548
0.001001426 -0.046360284 1.8872838e-06 0.017897638 -0.026338864 -0.030684251 0.009047271 -0.04684206
0.017443677 -0.07232852 0.014499464 0.007318084 0.002630411 -0.034852847 -0.01143859 0.045542046
0.028930085 0.03247676 -0.011854163 0.016705642 -0.0128459195 -0.018453982 -0.024580697 0.026701046
0.009671085 0.010545612 0.03346563 -0.058570877 -0.024478158 -0.043566693 -0.032015596 0.042715646
0.0016369534 0.015801653 0.031362623 -0.027027428 -0.009612454 0.01778003 0.009130957 0.0018516859
0.0037825461 -0.027210606 0.0054637524 -0.0123521695 0.0019925826 -0.023075102 0.048049815 0.027090684
0.04928521 0.059325922 0.005117774 -0.026804777 0.03138648 -0.01979139 -0.0039512394 -0.044642385
0.005642102 0.0005768762 -0.018130776 0.0026406294 0.010165766 -0.023928368 -0.02076519 -0.00013699006
-0.008859462 -0.017103922 -0.02702664 0.011991431 -0.02323891 0.03570553 -0.058613554 -0.025286794
0.044206798 0.011065777 -0.0045763403 -0.042079035 -0.025848612 0.02059808 0.004504519 0.023164991
-0.029137 0.0014839644 -0.005224069 -0.022493713 -0.0016450703 -0.0018047728 -0.029305076 -0.014431648
-0.03297023 -0.007667767 0.0074505894 0.018445458 0.041336372 0.022525935 -0.02416241 -0.024620803
-0.00089882984 -0.033179607 0.010419947 -0.00800357 -0.011095787 -0.040114697 0.015697345 0.010015617
0.00508473 0.008754777 -0.02908637 0.006412911 -0.004968389 -0.009724098 0.0018308308 0.010048997
-0.020661281 0.00025250184 0.0003072192 -0.03420183 0.008111479 -0.030492013 -0.018396314 0.011067527
-0.047408182 -0.025830815 -0.0012506059 0.017099567 0.03445509 0.0069179973 -0.027681248 0.023239069
-0.0034003586 -0.00054789317 0.034381885 -0.024224794 0.024968112 -0.0022750169 0.011192482 -0.026666788
-0.06550304 0.008193251 -0.028759273 -0.0090717245 0.023653377 0.034719374 0.009614267 -0.011703702
-0.0073581045 0.04543137 -0.04049538 -0.01292906 -0.025320675 0.012968686 -0.0024365971 0.003004614
0.0085195005 -0.005791646 -0.0014828781 0.0021960584 -0.014895607 -0.0047436766 -0.020449856 0.0049241446
0.023632199 0.032871783 -0.010314711 -0.045927897 0.01862077 0.0047884667 -0.0031298448 0.0005835654
-0.029517338 0.015143794 0.008512291 -0.017323509 -0.0047959965 -0.010553429 -0.012927632 0.0208595
0.047057275 0.01988303 -0.022463419 0.0003610377 0.01260199 0.013528835 0.008189224 0.011672151
-0.0007352822 0.007326155 -0.021932824 0.017911563 -0.020061705 0.00014137954 0.010960107 0.0038627419
0.026584605 0.015158122 0.043826006 0.012775181 0.015787583 -0.011884965 -0.017842053 0.033708956
0.009208977 -0.010365991 -0.02318855 0.03293785 0.024790617 -0.02493911 -0.022276195 0.021142146
0.040739287 0.034138948 -0.03879872 -0.0063487655 0.03694217 0.00639168 0.0067814915 0.0059226267
-0.039377782 -0.020526197 0.021510616 -0.006571732 -0.02342403 -0.0005268689 0.022976136 0.0013415944
00000000: 042b 733c da66 a93c f2da 99bc a8b0 25bd
00000010: 1ef6 ea3c dd52 79bb f477 05bd 3ccd f3b9
00000020: 456a 043d e741 7f3b 2e6d f53c 577e 183d
00000030: daaf 09bd 3b93 2abc 6e30 b5ba 2a1c 1cbb
00000040: 8a63 bfbc 02e1 bb3c 4c79 f03b 9cc8 1b3b
00000050: 960d 063b 1269 793c c542 3fbc 57a4 da3b
00000060: d56d 903b 7d30 92ba de4d b73c 00ea e23c
00000070: ec51 c73c b9d8 21bc b6c3 0abc db3d 253c
00000080: 4842 833a 48e4 3dbd 944e fd35 119e 923c
00000090: 9ac4 d7bc 8a5d fbbc 013b 143c 76dd 3fbd
000000a0: 0be6 8e3c fa20 94bd 298f 6d3c 8acc ef3b
000000b0: f962 2c3b dcc1 0ebd ec68 3bbc 4c8a 3a3d
000000c0: c9fe ec3c 5a06 053d f737 42bc 45da 883c
000000d0: b177 52bc ce2c 97bc 755d c9bc 27bc da3c
000000e0: 7873 1e3c 81c7 2c3c 4213 093d 04e8 6fbd
000000f0: 6b86 c8bc fd72 32bd c922 03bd 9af6 2e3d
00000100: 0b8f d63a 7872 813c 1876 003d a068 ddbc
00000110: 8e7d 1dbc 6da7 913c 029a 153c 45b4 f23a
00000120: 98e4 773b c7e8 debc 4709 b33b c160 4abc
00000130: fd95 023b ff07 bdbc e2cf 443d 48ed dd3c
00000140: 4adf 493d bdff 723d 00b3 a73b b195 dbbc
00000150: 1c8f 003d 8e21 a2bc 6679 81bb efda 36bd
00000160: 62e1 b83b 8239 173a fe86 94bc 690e 2d3b
00000170: 508e 263c 6d05 c4bc c21b aabc fda4 0fb9
00000180: 4727 11bc 861d 8cbc f966 ddbc b577 443c
00000190: 875f bebc f63f 123d c414 70bd 4026 cfbc
000001a0: 3012 353d 3c4d 353c 20f5 95bb 115b 2cbd
000001b0: 78c0 d3bc 4ebd a83c a59a 933b 82c4 bd3c
000001c0: b8b0 eebc 9581 c23a ab2e abbb bc44 b8bc
000001d0: 669f d7ba 208e ecba 3311 f0bc b872 6cbc
000001e0: cb0b 07bd e441 fbbb 1324 f43b ee1a 973c
000001f0: 5450 293d 4f88 b83c 3ff0 c5bc 91b1 c9bc
00000200: 739f 6bba 57e7 07bd 6db8 2a3c 6821 03bc
00000210: 1bcb 35bc 4f4f 24bd b897 803c 8b18 243c
00000220: cf9d a63b 3270 0f3c 8a46 eebc 6623 d23b
00000230: decd a2bb d351 1fbc 7df8 ef3a 8ca4 243c
00000240: d941 a9bc 3962 8439 4312 a139 3817 0cbd
00000250: 02e6 043c 63ca f9bc deb3 96bc 9354 353c
00000260: 152f 42bd 259b d3bc 5feb a3ba 6414 8c3c
00000270: c820 0d3d 5eb0 e23b c9c3 e2bc dc5f be3c
00000280: 8dd8 5ebb 7da0 0fba 05d4 0c3d 1373 c6bc
00000290: ed89 cc3c 7318 15bb ac60 373c 4f74 dabc
000002a0: 7526 86bd fc3c 063c 9198 ebbc 92a1 14bc
000002b0: bac4 c13c e735 0e3d 2985 1d3c e2c0 3fbc
000002c0: 411c f1bb 3f16 3a3d 7cde 25bd 68d4 53bc
000002d0: 4e6d cfbc 9d7a 543c 51af 1fbb 0fe9 443b
000002e0: 6095 0b3c d9c7 bdbb 225d c2ba bfeb 0f3b
000002f0: b40c 74bc d870 9bbb 7586 a7bc b85a a13b
00000300: 5098 c13c 90a4 063d 09ff 28bc e41e 3cbd
00000310: 968a 983c 92e8 9c3b 151e 4dbb 69fa 183a
00000320: 58ce f1bc ad1d 783c 2377 0b3c 08ea 8dbc
00000330: bc27 9dbb 4ae8 2cbc 6bce 53bc 8be1 aa3c
00000340: 21bf 403d bce1 a23c 3405 b8bc a949 bd39
00000350: 9478 4e3c 0ca8 5d3c 182c 063c 8d3c 3f3c
00000360: f4bf 40ba 3e10 f03b 77ac b3bc 45bb 923c
00000370: 7258 a4bc 483f 1439 0592 333c 0e26 7d3b
00000380: f5c7 d93c c659 783c e682 333d fe4e 513c
00000390: f654 813c 28b9 42bc 7f29 92bc 6712 0a3d
000003a0: 40e1 163c 1ed6 29bc eaf5 bdbc d7e9 063d
000003b0: b115 cb3c 1b4d ccbc 917c b6bc 4b32 ad3c
000003c0: 3dde 263d 48d5 0b3d 68eb 1ebd 4e09 d0bb
000003d0: ac50 173d 4c71 d13b 4637 de3b 9812 c23b
000003e0: 994a 21bd 8e26 a8bc 0837 b03c af57 d7bb
000003f0: c0e3 bfbc 931d 0aba 7338 bc3c 70d8 af3a
