topic_modeling/bert_topic/results/wor_all_phrases/mpnet/my_model/topic_embeddings.safetensors (safetensors, 64600 bytes, 1 tensors)

topic_embeddings f4 [21, 768]
00000000: d6f2 3b3c e8de 7f3c 4a0d 09bc 3cc1 1abd
00000010: 3310 793c 0d3c a43c 2184 3dbd cd48 303c
00000020: d447 87bb 0ac9 be3a ffab 043d 7ebc 5cba
00000030: 84a4 05bd 8194 f2bb b3cf a8bc 69c2 6fbc
00000040: 84cd 603b bc0c a23c 3104 9c3c ef8f d6bb
00000050: cd2f 7fbc ef05 663c 1cc1 07bb d003 753b
00000060: 6446 c93b 6f4a 0dbd e996 c73c 50f4 f03c
00000070: df22 cc3c b557 5abc 50e5 0f3c 048f 9f3c
00000080: 5c5b 85bb a01f adbc f662 dd35 5d17 30bb
00000090: af39 fcbc 43ee c4bc df13 a139 fb0d e4bc
000000a0: 1a23 f43c 8c30 21bd ad5c ac3c b203 e83b
000000b0: 2d9d 78bc 63be 0dbd b00d d93a 9340 323d
000000c0: 0a06 c83c a357 8f3c d54d fbbb a668 883b
000000d0: 613b 3bbd 98c8 debc d30e ca3c 263b abbb
000000e0: fe93 d53b aa7e e8bc 6a4e 343d ec8f 11bd
000000f0: 756a 78bc 7629 05bd d6d2 1abd c4c7 0f3c
00000100: c3c0 5c3c d04d fc3b 91a6 ba3c 6ca5 fdbc
00000110: 1767 88bb c1b8 1d3c 6236 09bd 35ec 363c
00000120: f64b 603c 4acc 8f3b 429c 20ba e4a9 bb3b
00000130: 7289 abbb 2ae4 8a3b 38ef 953c d013 703b
00000140: c1e0 cc3c 1667 513d 2471 833b 51fc 8b3b
00000150: 3354 cc3c 0a08 f23a 5a04 6abb 2804 10bd
00000160: 1810 c03c 666c afbc 42e5 4cbc 91eb b7bc
00000170: da73 8d3c b2cf ebbb 3c9a c4bc 6c1f ebbb
00000180: c382 7cbc c211 aabc 7f49 f7bc 8277 8fbc
00000190: fc57 7ebd a5fa bb3c 1bb6 0dbd 0cde b1bc
000001a0: 3550 e43c 55bd b7bc 0df0 223b e385 09bd
000001b0: 35f1 d9bc 6f28 253d a68a 1e3c ddfd f83c
000001c0: a5c1 01bd 001d de3c b10e 4e3c f392 febc
000001d0: f86b ecbc e499 3d3b 91bb 9bbc 4eb2 1e3c
000001e0: 7e2e 02bd 8abf d13b 97f3 903b 4e0d dd3c
000001f0: 8103 c23c f2d3 203c 1cc8 c7bc 5cd4 84b9
00000200: c37a 723c bc71 b5bc 5414 7f3c a5d6 73bb
00000210: 68fb aebb ea05 03bd 562b 953b 0b26 ab3c
00000220: 0d3a 853c 255d 723c 2ba0 41bd bdc6 073b
00000230: bb0a 0dbc 39c6 04bc 3ca4 72bb 1795 363c
00000240: 7060 ebbc 7980 173c 7569 a53c 1129 efbc
00000250: 0485 1d3c ff4f e5bc f42f 5cbc a3e0 e53b
00000260: b97a b0bc a3f2 9bbc 56bb 773b 8486 d73c
00000270: 9ac9 533d 14f6 e9bc 168e 32bb b750 643c
00000280: 72c1 923b 6a86 f6bb 87e6 3d3d bc14 e4bc
00000290: f91f c43b acb4 d03b 1f11 4c3d a11d 49bc
000002a0: c739 9ebc fbb8 11bc f3da 00bd c981 abbb
000002b0: 0bb2 953c 1719 503d 9f48 4b3c 7fb1 8fbc
000002c0: e3ed 20bc 4386 663c 5f0e 50bd b278 1fbc
000002d0: 3bb9 65bc 6022 46bc a44c 7bbc e4d1 fe3b
000002e0: 397b d1b8 006e 733b 7494 7cbc ce33 283b
000002f0: d3b5 0dbd 6a08 4cbc ec31 13bd 9351 303c
00000300: a0c8 1ebd 62d4 d33c 360d c1bc c5b7 e9bc
00000310: 6fcc 163c 9387 d4bc 41af dabb 7fd9 cebc
00000320: c17a b2bc 688f 41bc 2353 943c 29e7 903b
00000330: d789 0dbb 3b5a 4c3b bc3b 27bd 05b4 9cbc
00000340: 9995 d23c cbbc 343c 8405 30bc 78b4 9b3c
00000350: f425 693b 9e4b 95ba fa6b 6a3b 66a4 113d
00000360: a1cd 193c 383a 7abc 5ff9 a1bc 0b7e ad3c
00000370: bc81 7ebc 47dc 8a3c ed61 41bc 8b43 bbba
00000380: 9994 a53c bc08 ddbc ee24 053d 88e5 fb3b
00000390: 4991 9d3c ca38 6ab9 92fd f8ba e3ef 063d
000003a0: 8b48 7d3c 59c8 eeba f850 c0bc ec7a 1e3d
000003b0: 3294 3f3c cbff 8a3c d9c9 9cbc f4c5 ac3c
000003c0: 4f5c 073d f55d 8bbc a5d8 aabc 026f 0ebb
000003d0: 2c78 2e3d 0567 ac3c 1427 0f3c fe3f f43c
000003e0: bf08 8b3c 11a6 813c 87ea ab3c 399e 353c
000003f0: 3888 20bb c409 eabb c520 be3b bdd6 7cbc
0.011471471 0.01561711 -0.008364985 -0.03778194 0.015201616 0.020048166 -0.046268586 0.010759545
-0.0041284356 0.0014555764 0.03239059 -0.00084204215 -0.032627597 -0.007402957 -0.020606851 -0.014633753
0.0034302184 0.019781463 0.019044967 -0.00654792 -0.015575361 0.014039501 -0.0020714467 0.0037386306
0.0061424244 -0.034494814 0.024363952 0.029413372 0.024918972 -0.013326575 0.0087827 0.019477375
-0.004069729 -0.021133244 1.6494585e-06 -0.0026869394 -0.030789224 -0.024039393 0.00030723118 -0.027838698
0.029801894 -0.03935294 0.021040285 0.0070805186 -0.015174192 -0.034605395 0.0016559865 0.043518614
0.024416942 0.017497843 -0.0076691904 0.0041628657 -0.045710925 -0.02719526 0.024665272 -0.005225557
0.006517886 -0.02838071 0.044020094 -0.035537645 -0.0151621 -0.032510243 -0.037798725 0.008775655
0.013473692 0.0076997057 0.022784503 -0.030962668 -0.00416268 0.009626568 -0.03349913 0.011164715
0.0136899855 0.004388367 -0.00061268 0.0057270397 -0.0052348906 0.004238625 0.018302545 0.0036632903
0.025009515 0.0511237 0.00401129 0.004272022 0.024942493 0.0018465531 -0.003570816 -0.035160214
0.023445174 -0.021413993 -0.012505831 -0.022451194 0.017267156 -0.00719639 -0.023999326 -0.0071753766
-0.015412035 -0.02076042 -0.030186413 -0.01751304 -0.062095627 0.022946665 -0.034597497 -0.021712326
0.027870277 -0.022429148 0.002486232 -0.03357495 -0.026604274 0.040321764 0.009676611 0.030394489
-0.031678814 0.027113438 0.012576745 -0.03107593 -0.028860077 0.0028930837 -0.019010337 0.009686066
-0.03178262 0.006401007 0.0044235694 0.026983883 0.023683311 0.009816157 -0.024387412 -0.00025335222
0.0147997765 -0.02214896 0.015568811 -0.0037206796 -0.0053400286 -0.031988062 0.004552285 0.020892164
0.016263032 0.014792715 -0.04727189 0.0020717822 -0.008608515 -0.008103901 -0.003702416 0.011143944
-0.028732508 0.009246939 0.020191887 -0.029194387 0.009614233 -0.027992247 -0.013439167 0.007015304
-0.021542894 -0.019036597 0.003780087 0.02630926 0.051705934 -0.028559722 -0.0027245334 0.01393526
0.004478627 -0.0075233476 0.046362426 -0.027841918 0.0059852568 0.006369194 0.049821015 -0.0122751305
-0.01931466 -0.0088942 -0.031458806 -0.0052339775 0.018273374 0.050805178 0.012407451 -0.017540691
-0.009822342 0.014070096 -0.050794955 -0.009733366 -0.014021213 -0.012093157 -0.015338097 0.0077764858
-9.9888486e-05 0.0037144423 -0.015416253 0.0025665644 -0.03459723 -0.012453178 -0.03593628 0.010761636
-0.03876555 0.025858108 -0.02356587 -0.028530011 0.009204014 -0.025943553 -0.006673724 -0.025250195
-0.02178705 -0.011813976 0.018106049 0.0044220877 -0.0021597052 0.0031181711 -0.04082845 -0.019128809
0.0257061 0.01103134 -0.0107435025 0.019006953 0.00355756 -0.0011390334 0.0035769925 0.035557173
0.009387405 -0.0152726695 -0.01977223 0.021178266 -0.015533861 0.01695074 -0.0118031325 -0.0014287097
0.020212458 -0.026981704 0.032505922 0.0076872744 0.019234316 -0.00022337135 -0.0018996468 0.032943618
0.01545919 -0.0018217667 -0.023476109 0.038691446 0.011693047 0.016967675 -0.019139217 0.021090485
0.033047017 -0.017012576 -0.020855257 -0.0021733646 0.042595074 0.021045217 0.008737344 0.02981567
0.016971944 0.015826257 0.020985855 0.0110850865 -0.0024495255 -0.0071422774 0.0058022463 -0.015432057
