topic_modeling/bert_topic/results/wor_text/mpnet/my_model/topic_embeddings.safetensors (safetensors, 104536 bytes, 1 tensors)

topic_embeddings f4 [34, 768]
0	0xbcc350f2	-0.023842309
1	0x3cf7ee4b	0.030264994
2	0xbcc97324	-0.024591036
3	0xbcf18270	-0.029481143
4	0x3cc7c4ea	0.024385888
5	0xbaf3ecae	-0.0018609965
6	0xbd0851cf	-0.033281144
7	0x3c6786b5	0.014131238
8	0x3c76677f	0.015039324
9	0x3c0074cc	0.007840347
10	0x3d210d0f	0.039319094
11	0x39865276	0.0002561991
12	0xbd4d2f13	-0.05009372
13	0xbc732fa5	-0.014842902
14	0xbae87a46	-0.0017736636
15	0x3c48eec2	0.012263956
16	0x3cd546e6	0.026034784
17	0xbba38336	-0.004990007
18	0x3cee6587	0.029101146
19	0xbb3fe4bb	-0.002928062
20	0xbc120add	-0.008913723
21	0x3c0cdf13	0.008598107
22	0xbc52c066	-0.012863254
23	0x3bc8deb8	0.006130066
24	0xbc56fd16	-0.013121864
25	0xbca9c859	-0.020725416
26	0x3c8d05c6	0.017214667
27	0x3d168702	0.036749847
28	0x3d2b54e2	0.041828997
29	0xbd38b246	-0.04509189
30	0x3b872078	0.0041237436
31	0xb9e3275d	-0.00043326142
32	0x3b4f2dd2	0.0031613004
33	0xbd1c520c	-0.038164183
34	0x35fe3077	1.893858e-06
35	0xbc447638	-0.011991076
36	0xbca82b67	-0.020528508
37	0xbd0864fa	-0.033299424
38	0x3c3689d0	0.0111412555
39	0xbd226754	-0.039649323
40	0x3c82baa9	0.015958147
41	0xbd88c3d2	-0.06677975
42	0x3ade382d	0.0016953998
43	0x3b6e99a5	0.0036407497
44	0xbcb2583b	-0.021770587
45	0xbd140c17	-0.036144342
46	0xbc7e0c24	-0.015505824
47	0x3d2b653f	0.041844603
48	0x3cdc7a42	0.026913766
49	0x3ced94ed	0.029001677
50	0xbc48597a	-0.012228364
51	0x3ca018c4	0.01954306
52	0x3b012cce	0.0019710544
53	0xbba31a79	-0.004977521
54	0xbcc9a887	-0.024616493
55	0xbc8812d8	-0.016610548
56	0x3c8e6614	0.017382659
57	0xbd0360d9	-0.032074783
58	0x3c49dae8	0.012320258
59	0xbd37e6e4	-0.04489793
60	0xbc14d8d1	-0.009084896
61	0xbc284602	-0.010270597
62	0xbd352be0	-0.044231296
63	0x3c987c38	0.01861392
64	0xbbf344f4	-0.0074239913
65	0x3d061db0	0.032743156
66	0x3c83ef75	0.016105393
67	0xbd29fecc	-0.04150276
68	0xbcc0f600	-0.023554802
69	0x3bc348af	0.0059595923
70	0xbc6ea5f4	-0.0145659335
71	0xbb0699c0	-0.002053842
72	0xbb5d9687	-0.0033811645
73	0xbcc38a03	-0.02386952
74	0x3c6d313e	0.014477072
75	0x3b9b0db2	0.004731857
76	0xbc3709d8	-0.0111717805
77	0xbc27ddbe	-0.010245739
78	0x3d036f43	0.03208853
79	0x3cbe44ad	0.023226107
80	0x3d44e83f	0.04807305
81	0x3d18ccfd	0.037304867
82	0x3b81d1f7	0.0039617973
83	0xbc37fd5d	-0.01122984
84	0x3ce1213a	0.027481664
85	0xbbb35eed	-0.0054739625
86	0xbbe3397c	-0.006934343
87	0xbd1cf9a3	-0.03832401
88	0x3b9d1a19	0.004794371
89	0xbb77e83c	-0.0037827631
90	0xbc3a1fb4	-0.011360098
91	0xbc223a65	-0.009901618
92	0x3c9c1d01	0.019056799
93	0xbc406310	-0.011742368
94	0xbcb97159	-0.022637056
95	0x3b314fef	0.00270557
96	0xbaa16691	-0.0012313892
97	0xbbc18858	-0.005906146
98	0xbcbf3844	-0.02334226
99	0xbcf41517	-0.029795213
100	0xbd80df40	-0.062925816
101	0x3ca4de84	0.020125635
102	0xbd13ac53	-0.036053013
103	0xbd02ff9e	-0.031982057
104	0x3d49c07c	0.049255833
105	0xbc05fdb9	-0.008178168
106	0xbd2a7320	-0.041613698
107	0xbc8cd241	-0.0171901
108	0xbc258806	-0.010103231
109	0x3d01bedb	0.031676155
110	0x3c669913	0.014074582
111	0x3d03159b	0.032003026
112	0xbccffeec	-0.02539011
113	0xba89649b	-0.0010482253
114	0x3c9e4ad1	0.019322785
115	0xbb7e0ddb	-0.0038765583
116	0x3b728a06	0.0037008538
117	0xbc850ae5	-0.016240546
118	0xbcc99307	-0.02460624
119	0x3c4b1d0c	0.012397062
120	0xbcf79c87	-0.030226005
121	0xbc32bd44	-0.010909382
122	0xbb86485e	-0.0040979823
123	0x3d03d63f	0.032186743
124	0x3cec41ba	0.028839935
125	0x3bce447a	0.006294784
126	0xbc744089	-0.0149079645
127	0xbc9a7b96	-0.018857758
128	0x3c243bd6	0.010024032
129	0xbd0a1e81	-0.033720497
130	0x3c246d1c	0.010035779
131	0xbcbbd8c5	-0.022930512
132	0x3bfde4c8	0.00774822
133	0xbcd2f351	-0.025750788
134	0xbc763aba	-0.01502865
135	0x3bcad013	0.006189355
136	0xbbefc1ec	-0.0073168185
137	0x3c8b6a7e	0.017018553
138	0xbba74591	-0.0051047285
139	0x3b927032	0.004468941
140	0xbc9a2c96	-0.018820088
141	0x3ba21c72	0.0049472386
142	0x3bf21e0d	0.0073888362
143	0x3c87a80b	0.016559621
144	0xbcaf754e	-0.02141824
145	0xb9f51558	-0.00046745944
146	0xbaf6e3ce	-0.0018836202
147	0x3bd21d2a	0.006412168
148	0x3c75aa1a	0.014994169
149	0xbc88a006	-0.016677868
150	0xbd1106cf	-0.035406884
151	0xbc82992a	-0.015942175
152	0xbcf43a4f	-0.02981296
153	0xbca7b9cb	-0.020474335
154	0xbccff8ed	-0.025387252
155	0x3c82668c	0.015918039
156	0x3d475be5	0.04867162
157	0xbcc8a95c	-0.02449482
158	0x3c8621fc	0.016373627
159	0x3baccf4b	0.0052737347
160	0xbc0d28ef	-0.008615716
161	0x3c4100cf	0.011779978
162	0x3cc3a176	0.023880702
163	0xbc0c3fba	-0.0085601155
164	0x3c3ca91b	0.011514927
165	0x3c4ee321	0.012627394
166	0x3d350caf	0.04420155
167	0xb9d9ad69	-0.00041518666
168	0xbc25a977	-0.010111204
169	0xbb34f6e7	-0.0027612986
170	0xbcb1ca23	-0.021702832
171	0x3c3e6698	0.01162114
172	0x3cb0abc5	0.021566281
173	0x3c07a785	0.008279686
174	0x3bb6d23a	0.00557926
175	0xbd2f7b74	-0.042842343
176	0xbcd0f660	-0.025508106
177	0x3c4a5f65	0.012351845
178	0xbd36484b	-0.044502538
179	0x3b63325c	0.0034667468
180	0xbcaf0a11	-0.021367105
181	0x3bdb2b3e	0.0066885045
182	0xbc8f51c4	-0.017495044
183	0xbc072189	-0.0082477415
184	0xba0cde5c	-0.00053737103
185	0xbc8c6884	-0.01713968
186	0xbd083454	-0.03325303
187	0xbc434c8a	-0.011920104
188	0xbcc48910	-0.023991138
189	0x3c71a6a3	0.014749202
190	0xbd41f123	-0.047349107
191	0x3c1b7689	0.00948871
192	0xbc453bf6	-0.012038222
193	0x3cc05c07	0.023481382
194	0xbd143d20	-0.036191106
195	0xbd5104ba	-0.0510299
196	0x3ba2a1d4	0.004963139
197	0xbc4f924b	-0.012669156
198	0xbc4c3b0d	-0.012465251
199	0xbc9d9d8f	-0.019240169
200	0xbb53f3c6	-0.0032341345
201	0xbc068ea4	-0.008212719
202	0xbb5b74e2	-0.0033486416
203	0xbb6b5be2	-0.003591292
204	0xbb5ae049	-0.0033397845
205	0x39129169	0.00013977815
206	0xbd4bc7f6	-0.049751244
207	0xbc54bf98	-0.012985133
208	0x3d2bef57	0.0419763
209	0x3b881889	0.0041533154
210	0x3b9c565c	0.004771037
211	0x3a6e60e9	0.000909342
212	0x3bcba560	0.0062147826
213	0x3a70379b	0.00091635593
214	0x3c8f3056	0.017479103
215	0x3d0fe88c	0.035133883
216	0x3be4a15f	0.0069772447
217	0xbc7bcb65	-0.015368317
218	0x3c07fb77	0.0082997
219	0x3d08b881	0.03337908
220	0xbca45d7c	-0.020064108
221	0x3cc7312f	0.024315445
222	0xbc2d4fa1	-0.010578067
223	0xb9dc3d04	-0.0004200713
224	0x3cbbdf10	0.022933513
225	0x3af5ba91	0.0018747618
226	0x3cd00d37	0.025396926
227	0x3c884bfa	0.016637791
228	0x3c2a6425	0.010399853
229	0xbd00e10c	-0.03146462
230	0x3b820a7f	0.0039685364
231	0x3d03f2a9	0.03221384
232	0x3c2945dc	0.010331597
233	0xbbbdd762	-0.005793498
234	0xbba5e4bb	-0.005062667
235	0x3d2351c3	0.039872896
236	0xbc19a708	-0.009378202
237	0x3cb4030e	0.021974113
238	0x3bb0e6ed	0.0053986222
239	0x3d380888	0.04493001
240	0x3d2ca772	0.042151876
241	0xbc213c2d	-0.009841007
242	0xbd599568	-0.053121
243	0x3c9393aa	0.018014748
244	0x3c35750c	0.011075269
245	0x3d15a3f9	0.03653333
246	0xbc85cad1	-0.016332062
247	0x3cd6e0f0	0.026230305
248	0xbc15dddf	-0.0091471365
249	0x3c3fd489	0.011708387
250	0x3ccc828e	0.024964597
251	0x3caefe0e	0.021361377
252	0xbc93d829	-0.01804741
253	0xbc0dff65	-0.008666848
254	0xbcd3d772	-0.025859568
255	0xbcaf4a9b	-0.02139788
