topic_modeling/bert_topic/results/wor_all_phrases/distilroberta/my_model/topic_embeddings.safetensors (safetensors, 6232 bytes, 1 tensors)

topic_embeddings f4 [2, 768]
000000 2d b0 4a bc 0c 2e 0a bc b7 7a 88 3c b5 58 66 3c
       -0.012371105 -0.00843383 0.016660077 0.014059235
000010 80 b0 0f 3d c4 9b 90 bc c3 94 8a bc 05 65 d1 3b
       0.035080433 -0.0176524 -0.016916638 0.0063902163
000020 9f 5a 73 3c 58 5f 95 bb be d3 95 bc 54 92 09 3c
       0.014853149 -0.004558485 -0.018289443 0.008396704
000030 dd bd 32 3c 26 52 ca 3b 07 f9 a6 bc 3a e9 3a bd
       0.010909525 0.0061743436 -0.020382417 -0.04563258
000040 71 88 3a 3d 7e 50 d4 bc 94 6c 15 3c 86 e4 9b bb
       0.045540277 -0.025917288 0.009120125 -0.0047574667
000050 86 1e f4 3b 0c 47 ba bc 9c 59 03 bd 70 ac 8e 3b
       0.0074499277 -0.022738956 -0.03206788 0.0043540522
000060 8e 88 93 3c ee db 55 3c 73 ea d4 3c 5f 57 30 bc
       0.01800945 0.013052924 0.0259907 -0.010763018
000070 51 d9 03 bc a3 07 87 bc d7 00 82 bc 35 00 85 3c
       -0.008047418 -0.016483134 -0.015869541 0.01623545
000080 aa 14 b1 bb 10 e9 6e bc 7c fd 14 3b 66 57 2d 3c
       -0.0054040747 -0.014581934 0.0022734096 0.010579919
000090 d8 8d 03 bd 85 73 20 bc b2 d3 cb 3c 59 3e 5c 3c
       -0.032117695 -0.009793167 0.024881218 0.013442599
0000a0 6c 41 39 bd 6b 39 85 bc 5a 41 6f bc c8 d9 20 bc
       -0.045228407 -0.01626273 -0.014602983 -0.009817548
0000b0 25 70 50 3c fe 54 81 bc f4 4e 6e bb 05 7f c7 3c
       0.01272205 -0.015787598 -0.0036362978 0.02435256
0000c0 f6 f4 a1 bc 35 2c 20 3c 7b 25 ad 3b 9e f9 f0 3b
       -0.019770127 0.009776165 0.005284009 0.0073539754
0000d0 0b 41 29 bc 28 64 99 b9 7e 73 2e 3c 91 b2 96 bc
       -0.010330449 -0.00029257056 0.010647653 -0.018395694
0000e0 96 14 d6 bb 62 e2 de 3c 83 8b 85 3b 0a 34 32 bc
       -0.0065332158 0.027207557 0.004075469 -0.010876665
0000f0 ee 09 5c 3d 59 5e 9c 3b ea d2 e1 bb fe 55 b8 3c
       0.053720407 0.0047719893 -0.006891598 0.022501942
000100 26 90 27 3c 9d ce d8 3b 08 0b a8 3a af f8 b3 3c
       0.010227239 0.006616427 0.001282067 0.021969168
000110 91 2b e8 3b b9 7b 64 3b 99 0d f6 3b f1 49 1f 3d
       0.0070852716 0.0034863784 0.007508945 0.038888875
000120 ed b2 f7 ba a4 9e 8a ba a9 f7 8e bb b7 ff dc 3b
       -0.0018897929 -0.0010575843 -0.0043630195 0.006744351
000130 2e 9b f5 bc 32 21 14 bd 61 51 1a bd 2a 3c 03 ba
       -0.029981222 -0.03616447 -0.037675265 -0.00050062186
000140 dc d6 f3 bb 38 0d bb ba 5b 0c cc bc 83 2d 45 bb
       -0.0074413847 -0.0014270907 -0.024908235 -0.0030086942
000150 e3 f7 4c ba a9 f4 b4 3a da 23 06 bc 57 b5 c1 3b
       -0.00078189204 0.0013805825 -0.008187259 0.00591151
000160 d3 22 67 bc 5a 0d 40 bd 23 72 c4 3c c6 0f dc bc
       -0.014107424 -0.046887733 0.023980206 -0.02686299
000170 5d ef 93 3c af a9 7f 3b 64 54 7a 3c bc 30 44 bc
       0.018058473 0.0039011051 0.015278909 -0.01197451
000180 6e 3e 14 bb b0 85 cf 3c 75 a5 80 3a c8 b4 91 bc
       -0.0022620219 0.025332302 0.0009814935 -0.017786399
000190 f1 cb 05 bb 5d fa e7 bb 56 a0 ac bc 0d 12 02 3d
       -0.0020415748 -0.007079406 -0.021072548 0.031755496
0001a0 cd 02 1c 3d 97 a5 89 bc f2 a8 fd bb f3 eb d8 ba
       0.03808861 -0.016802592 -0.007741087 -0.001654981
0001b0 b8 c7 2c 3a 76 51 cf 3c 57 1f e1 bc c0 a5 85 bc
       0.000659104 0.025307398 -0.027480764 -0.016314387
0001c0 13 2f c3 3c ca 8e 1c 3d 73 ae 94 bb 7d e6 10 b9
       0.023826158 0.03822211 -0.0045373975 -0.00013818774
0001d0 78 1c 98 bc 88 9a 1b 3d 17 fa b8 3b e1 49 95 3c
       -0.018568262 0.03798917 0.0056450474 0.018223705
0001e0 a0 1d 6d ba 02 9d 28 bc 01 c7 86 3c a6 c4 80 bc
       -0.0009045247 -0.01029134 0.016452314 -0.01571877
0001f0 82 d4 b4 3b 9b 93 c3 3c f4 3e 68 3c 56 be f5 3c
       0.005518497 0.023874095 0.014175165 0.029997986
000200 19 06 59 bb 8d eb 01 3d a5 94 1f bc b1 89 c8 bb
       -0.0033115207 0.03171878 -0.009740029 -0.0061199297
000210 6d 2e d3 39 b1 72 21 3c 2a 3c 03 bd f6 00 87 bc
       0.00040279646 0.009854005 -0.0320398 -0.01647995
000220 75 52 34 bd 9f 8e 8c bb 61 85 c8 bb 05 d0 0b bb
       -0.04402395 -0.0042894627 -0.0061194156 -0.0021333706
000230 7a 75 fd bc 05 89 1e bc 1f 87 b8 3c ac f2 65 bc
       -0.030939806 -0.009676223 0.022525368 -0.014034908
000240 4a e4 0a 3c 75 26 b1 3c 8f 1c 06 3c b0 96 96 bb
       0.00847728 0.021624783 0.00818552 -0.0045956
000250 25 b4 2f bd 8b f7 2d 3d fc fd ce ba f4 72 56 bc
       -0.04289641 0.042472403 -0.0015792246 -0.01308893
000260 b4 db d4 bc 5f 89 d9 bc 8c 9e f7 3c f3 04 d2 bc
       -0.025983669 -0.026554761 0.030226968 -0.025637126
000270 ef e8 27 3d 79 ff e8 3c 98 06 c9 3c 3d 82 28 bc
       0.040993627 0.028442131 0.024539277 -0.0102849575
000280 6d 77 68 3c ea 8d 4b bc c1 48 aa 3b 39 1e dd bc
       0.01418863 -0.012423972 0.005196661 -0.02699195
000290 4f a1 31 bb c9 a5 0c bc 78 8f 4f bb 5f a7 c1 bb
       -0.0027104204 -0.008584448 -0.0031671207 -0.005909845
0002a0 c6 53 56 3c 1c ba d4 bc 55 d6 85 3c eb d9 5d 3c
       0.013081497 -0.02596765 0.016337553 0.013540725
0002b0 a5 cd d8 bc 9b 4d 9c 3c 04 23 1c 3d 68 b9 dd 3c
       -0.026465246 0.019079974 0.03811933 0.027065948
0002c0 3b ba 23 3c 97 c0 0a 3b 9b ab 36 3b e5 d6 4f 3c
       0.009993131 0.0021171921 0.002787328 0.012685512
0002d0 05 3c ce 3b 7c 3d 90 3c 37 10 70 bc 9e 5a 95 ba
       0.006293776 0.017607443 -0.014652303 -0.0011394804
0002e0 db c1 68 bc 88 8e 16 bd 28 bc 84 bb 47 ae 87 bc
       -0.014206375 -0.036757022 -0.0040507503 -0.016562594
0002f0 a1 1f 13 39 87 00 c9 bc e2 a3 0e 3c 4d 77 4d 3b
       0.00014030795 -0.024536384 0.008706065 0.0031351626
000300 01 c4 fe 3c 2d 0c 4b bc f8 f3 e8 3c 8d a7 c4 3c
       0.031099321 -0.01239304 0.028436646 0.024005676
000310 ca 0d 43 3c 0a 47 65 3c ba 52 b6 bb 91 a5 89 bc
       0.011905143 0.013993988 -0.005564061 -0.016802581
000320 58 1c 98 bc dd ff a3 3c e7 99 b9 3c 66 97 2e bd
       -0.018568203 0.020019466 0.022656394 -0.042624854
000330 9b 1c 18 bb 26 6f b5 3b 35 6f f0 bc dc 3d 94 3c
       -0.002321041 0.0055369316 -0.029349903 0.018095903
000340 87 1e e9 bb 31 0d 43 bc f4 0c 90 bc 1d 13 cf 3b
       -0.007114235 -0.011905001 -0.017584302 0.006319417
000350 fa 9d 44 bc a3 d3 2c bc 4c ee 15 3d 2c bf 75 3c
       -0.012000555 -0.010548505 0.03660421 0.014999192
000360 9e 94 9e bc bd 9f 45 3d 15 9a 19 3c 2b 48 b2 bb
       -0.019357976 0.04824804 0.009375115 -0.005440732
000370 ce 65 34 3c 80 64 0b bc 86 f6 59 3c 28 f4 6c 3c
       0.0110106 -0.008507848 0.013303405 0.014462508
000380 da bb 51 3c a9 1f 9a 3c cf d4 14 3d 2e 7b d9 3b
       0.012801135 0.018813925 0.036335763 0.0066369986
000390 19 9f 84 3c 09 49 b5 bc 1b 29 c8 bc 36 ce c2 3c
       0.016189145 -0.022129552 -0.024433663 0.02377997
0003a0 6b 6d 9c bc f4 82 c8 bc 84 eb 07 3d e9 17 13 bd
       -0.019095143 -0.024476506 0.03318359 -0.035911474
0003b0 0e 5b 4c 3d 94 bf a5 3c 1d 69 78 3c e1 ee 3b bd
       0.049891524 0.020232953 0.01516178 -0.04588211
0003c0 a0 a9 87 bc 97 47 01 3d 80 08 16 bc 01 71 c5 3c
       -0.016560376 0.031562414 -0.0091573 0.024101736
0003d0 06 88 a4 3c 0e 26 89 3c 23 70 4e 3c 6c a9 81 3b
       0.020084392 0.016741779 0.012599978 0.0039569642
0003e0 0e 96 dd bb 21 c4 e6 bc 43 df 48 3b 15 10 0d bb
       -0.0067622727 -0.028169693 0.0030650652 -0.0021524478
0003f0 c2 a3 d4 bc 10 c6 57 bb 9f 66 3a bc 61 d9 ef bc
       -0.025956992 -0.003292445 -0.011377006 -0.029278459
