topic_modeling/bert_topic/results/dep_all_phrases/distilroberta/my_model/topic_embeddings.safetensors (safetensors, 104536 bytes, 1 tensors)

topic_embeddings f4 [34, 768]
000000 c5 cd 83 bc 3e 2a 3d 3c 62 68 3a 3c a1 49 4d bb
       -0.01608933 0.011545716 0.011377426 -0.0031324404
000010 2d 04 44 3d 4f 96 18 bc 8d 05 18 bb 99 79 53 3c
       0.047855545 -0.00931318 -0.0023196668 0.012907409
000020 ac 86 e1 3c 4a 78 2f 3c 0e 62 0c bc 61 57 09 bb
       0.027530037 0.0107098315 -0.0085683 -0.0020956623
000030 c1 cc 98 bb 58 53 cd 3c d4 23 0d bd 4f 8f 13 bd
       -0.0046630804 0.025064155 -0.034457996 -0.03602534
000040 37 b6 a4 3c 77 9a 80 bc 9b 20 05 bb 4a 4f 21 3c
       0.020106418 -0.015698655 -0.0020313624 0.009845564
000050 e1 5a 0e 3c 3e 4f 89 bb ec f6 bc bc 7c 57 c9 3c
       0.008688659 -0.0041903546 -0.02306696 0.024577849
000060 18 b3 74 3c 43 1a af 3c 6c fe e1 3c 87 28 89 bb
       0.014935277 0.021374827 0.027587138 -0.0041857394
000070 f1 68 8c 3c a4 65 35 bc 98 ef 4e bc f7 35 ac bb
       0.017139884 -0.011071596 -0.012630366 -0.0052554565
000080 bd 07 b3 bb f6 5d b0 bb 3d 1c 13 bc 98 0e 30 bc
       -0.005463569 -0.0053822948 -0.0089789005 -0.010745667
000090 0f 0b b7 bc 11 d7 59 bb 6c 93 92 3c 59 43 95 3c
       -0.02234414 -0.0033239762 0.017892562 0.01822059
0000a0 de 1a 8d bc 31 a8 27 bd a9 42 4d bb f4 a1 04 ba
       -0.017224725 -0.040931884 -0.003132025 -0.0005059533
0000b0 ba f0 af 3a 94 6a b8 bc 08 a7 92 bc ff 57 e3 3c
       0.0013423183 -0.022511758 -0.017901912 0.02775192
0000c0 bc 23 3f bc 11 cb 85 3c da e5 90 bb af 66 5c bc
       -0.011666235 0.016332181 -0.0044219317 -0.013452216
0000d0 f5 28 bf ba 51 7c 19 ba a0 40 cd 3c 6b 80 4a bc
       -0.001458435 -0.00058550114 0.02505523 -0.012359719
0000e0 b5 15 2a bc 66 f1 20 3d e7 34 22 3c da 4a 0c 3b
       -0.010381152 0.039292715 0.009900308 0.002140692
0000f0 7b 9d 4e 3d 27 3a 8e 3c 6f bc 06 bd ff 8a 86 3c
       0.050443154 0.017361714 -0.032894548 0.0164237
000100 63 02 31 3c dd 79 e5 3b 44 cc 29 bb 65 71 b1 3c
       0.010803792 0.0070030526 -0.0025909105 0.021660516
000110 ca 3e af 3b b3 8b 66 3c f5 ea 68 bb 6f 38 df 3c
       0.005348061 0.014071393 -0.0035540436 0.02724859
000120 cb 53 f7 3b 54 88 b7 bc 86 83 07 bc fb 24 a0 3a
       0.0075478307 -0.022403874 -0.008271104 0.0012218052
000130 73 28 2e bd 19 72 12 bd a8 e7 62 bd 14 7c 0d bc
       -0.042519044 -0.035753343 -0.055396706 -0.00863554
000140 4a 26 3c bc 2c 91 c3 3b 2a 2f 36 bd 6a d3 00 bc
       -0.011483738 0.0059682336 -0.044478573 -0.007862905
000150 39 24 7b bb bd b1 ba 3c 4e 3f 8a bc 70 d4 4c bc
       -0.003832115 0.02278983 -0.01687589 -0.012501821
000160 b6 05 72 bb 4a d6 11 bd f2 fa 5f 3c db db 9b bb
       -0.0036929674 -0.035604753 0.01367067 -0.0047564334
000170 e4 17 02 3c 4d 79 17 3c 80 a5 a8 3c e9 de 86 bc
       0.007940266 0.009245229 0.020586729 -0.016463714
000180 5a b4 83 3b 19 a4 e4 3c 9f e5 4f 3c fd 33 42 bc
       0.0040193023 0.02791028 0.012689023 -0.011853215
000190 dd c5 7e bb e4 8d a5 3b 32 68 28 39 9b 56 20 3d
       -0.003887526 0.005052315 0.00016060544 0.039145093
0001a0 f1 01 03 3d 4a ac 92 bb e9 82 a8 ba 66 e2 67 bc
       0.031984273 -0.004476105 -0.0012856397 -0.014153099
0001b0 c8 34 d0 3b 94 86 92 3c c6 83 3e bc 62 3c cf bc
       0.0063539483 0.017886437 -0.011628097 -0.025297347
0001c0 e9 de b2 3c 02 f9 fe 3c 2b 0f 8c bc 25 0d e9 bb
       0.021834807 0.031124596 -0.017097076 -0.0071121627
0001d0 64 3d c6 bc f9 d3 02 3d f6 de 1a bc 30 f3 18 3d
       -0.024199195 0.031940434 -0.009452572 0.037341297
0001e0 a7 3f 4d 3c 9a 97 65 3b f6 84 ca 3c b6 35 e6 ba
       0.012527383 0.0035032989 0.024721604 -0.0017563615
0001f0 42 d4 3c 3c 46 ca 18 3d 94 55 a8 3b 98 4d fe 3c
       0.011525216 0.037302278 0.005137155 0.031042859
000200 20 7e d7 bb 5b e0 0c 3d dd bc 17 bc 44 d8 a6 bb
       -0.0065763146 0.03439365 -0.009261337 -0.005091699
000210 77 15 2f 3c 97 cc 56 bb e1 4f 8c bc 2b 0f 1c ba
       0.01068627 -0.0032775754 -0.017127933 -0.0005953188
000220 ff be f0 bc b7 9e c7 bb 1e 8d a0 bc 2d 11 1a 3c
       -0.029387949 -0.0060919183 -0.01959854 0.009403509
000230 42 d3 58 bc 65 ed c6 bc d4 52 2d 3c d8 f4 0b bc
       -0.013233962 -0.02428312 0.01057883 -0.008542262
000240 ef c9 08 bc 96 97 e4 3c 13 8d fc bb 7b de 0a 3b
       -0.008348926 0.027904313 -0.007707247 0.0021189738
000250 26 f1 0a bd a8 82 02 3d 25 3c 3a 3c d1 07 91 bc
       -0.033921383 0.031862885 0.011366879 -0.017703922
000260 0a 89 63 bc 70 ad 07 bd 75 f9 35 3b 82 33 b3 bc
       -0.013887653 -0.033124387 0.0027767096 -0.021875147
000270 b3 8a 4e 3d b3 c5 e0 3c 88 9f 2f 3c 56 92 9b ba
       0.050425243 0.02743802 0.010719188 -0.0011869173
000280 74 99 99 3b f2 59 65 bc 50 2e d0 3c 5a 23 58 bd
       0.0046874825 -0.013998495 0.025412709 -0.05276809
000290 7a 95 bc 3c 5e 8e da bb 2b 68 c6 3b 96 5f 3c 3b
       0.023020495 -0.0066698035 0.0060548983 0.0028743497
0002a0 11 ad a0 3c 58 53 bb bc a5 97 1e 3c 61 6a d1 3b
       0.019613774 -0.02286689 0.00967971 0.006390855
0002b0 9f 5b 4b bc 07 7d 5f 3c 4c 42 55 3c a1 f8 c6 3c
       -0.012411981 0.013640649 0.013016295 0.024288477
0002c0 75 7f a3 3c 5e ae 7a 3c ff 64 3f 3c 8a e0 ae 3c
       0.019958237 0.015300361 0.011681794 0.021347303
0002d0 28 c0 71 bc f2 34 79 3c 2e 8a 61 bc d2 22 be 3b
       -0.014755286 0.015210377 -0.013765855 0.0058024907
0002e0 5f 40 1e bc 98 a5 a5 bc 1a 1a 49 bc 42 4b 0c bc
       -0.009658902 -0.020220563 -0.0122742895 -0.008562865
0002f0 e7 2d 04 bc 8b 06 a7 bc 5a cb a7 bb 9c 45 0c 3a
       -0.008067585 -0.020388862 -0.005120677 0.0005350949
000300 40 c0 05 3d 70 37 8c 3c 9c 8e bc bb 47 d4 d8 3c
       0.032654047 0.017116278 -0.005754305 0.02646841
000310 96 08 c0 3c 7c 75 e6 3b e2 e1 63 3b 1f ea e4 bc
       0.023441594 0.007033048 0.0034772088 -0.027943669
000320 e2 cc 9c bc 03 cd ec 3b 3c a0 22 3c 93 36 50 bd
       -0.019140664 0.0072265877 0.009925898 -0.050833296
000330 85 f7 33 bc b8 be 67 bb 71 a3 ca bc 35 be 80 3c
       -0.010984306 -0.003536148 -0.024736138 0.015715698
000340 1a 36 73 bc af 3c 1f bc e0 0d 95 bc 05 8b 13 3c
       -0.014844442 -0.009719058 -0.018195093 0.009005313
000350 a7 fd 76 bc c9 84 bd bb b1 29 44 bb 37 61 ce 3c
       -0.015075124 -0.0057836515 -0.0029932077 0.02519284
000360 27 e1 06 bb fb 94 ec 3c e0 e0 38 bb 1c 3a a7 bc
       -0.0020580979 0.028879633 -0.0028210208 -0.02041345
000370 ce 3c fc 3c 7e ab f5 bc af d3 01 3c d9 7e 09 3c
       0.030790713 -0.029989 0.007924004 0.008392059
000380 9a cb 81 3b 99 f6 b5 bb 7c 4d 09 3d 75 7f 27 3c
       0.003961039 -0.0055530784 0.03352116 0.010223259
000390 d9 62 56 3c 68 59 95 bc 25 8b cd bc 06 1e f7 3b
       0.013085091 -0.018231109 -0.025090763 0.007541421
0003a0 39 98 98 bc dd a6 95 bc 79 6d da 3c 52 0b 12 bd
       -0.018627273 -0.018268043 0.026663529 -0.035655327
0003b0 b3 e4 0e 3d 29 c7 93 3c cf 2b 7e 3c 22 cb 34 bd
       0.034886073 0.018039303 0.0155133745 -0.044139035
0003c0 dc 7c 01 bd 2e 57 ba 3c 39 22 5a 3b d5 c6 a4 3c
       -0.031613216 0.022746649 0.0033284558 0.020114342
0003d0 6a 74 32 3c 8f 12 95 3c 35 62 0a 3c c7 4e 73 3c
       0.010892013 0.018197326 0.008446266 0.014850325
0003e0 2d 01 02 bb 6f 70 c7 bb ad 5a fc ba 8e b8 cc bb
       -0.0019837127 -0.006086401 -0.0019253098 -0.0062475866
0003f0 df b2 c2 bc 4d 7e ee bb d9 7c 1c 3b 53 b1 14 bd
       -0.023766933 -0.00727824 0.0023878126 -0.036301922
