topic_modeling/bert_topic/results/wor_text/multi-mpnet/my_model/topic_embeddings.safetensors (safetensors, 110680 bytes, 1 tensors)

topic_embeddings f4 [36, 768]
-0.1924739 -0.16624933 -0.23688872 -0.048097484 0.014137846 -0.16193527 0.08657202 0.111699305
0.019955676 0.21087247 0.19992329 -0.11171821 -0.3020081 -0.20412426 -0.16199657 0.16445096
0.1770333 -0.21995834 0.24264483 -0.094411194 -0.26827043 -0.092985526 -0.07687065 0.17963202
-0.1934324 -0.14918767 0.15370776 0.3086137 0.19197313 -0.097803 0.009813897 -0.03425075
-0.080038354 0.006616536 -0.00010327169 -0.07672406 0.14946556 0.060156733 -0.095051326 -0.0361299
-0.06752419 -0.31012282 0.02074361 -0.09628882 -0.2115086 -0.09776254 -0.14154996 0.048174925
0.36927247 0.22431171 0.28369668 0.19651344 -0.054354455 -0.043109335 0.038796503 0.117454976
0.023897313 -0.04851945 0.2396367 -0.2042635 -0.05060792 0.02930178 -0.23701221 0.19384208
0.10793257 -0.06079952 0.3054033 -0.3669979 0.050597724 0.086391546 -0.07835858 0.13712515
-0.112285286 -0.18252738 0.22918874 -0.014475567 0.31887448 -0.035972346 0.04307264 0.15296313
0.15731241 0.30613104 0.05602625 -0.0041890987 -0.10061417 0.15820894 -0.16659656 -0.10218877
0.15162455 -0.1700404 -0.12795258 0.050231326 -0.0023834126 0.11178968 -0.057724983 -0.16738154
-0.06290323 0.022077687 -0.21578538 -0.08590064 -0.18104264 0.069224246 -0.17245975 -0.13823584
0.43685982 -0.27805087 -0.16509429 -0.05849655 0.14646503 0.18445931 0.2608603 0.26275983
0.09008318 -0.0002304656 -0.030365065 0.032975834 0.12027342 -0.22504388 -0.23851426 0.09593934
-0.18732177 -0.07678727 -0.0056578633 0.18001479 0.24122682 0.23164776 -0.17714795 -0.08479014
0.026906423 -0.2771521 -0.15895504 -0.07941392 -0.19914536 0.05389031 -0.09716631 0.06623183
-0.01406295 0.0421455 0.12280207 -0.11671636 -0.1731641 -0.069155395 0.06891846 0.34624362
-0.23419367 0.03034352 0.08081301 0.041452922 0.06526849 0.070787475 0.06689614 -0.09083095
0.029974354 0.19108336 -0.15041842 0.18696961 0.2882233 -0.17790496 0.19418314 -0.03991914
0.14996794 0.11995621 -0.07614388 -0.11426207 -0.09438269 0.15805553 0.27148306 -0.011206354
-0.056461353 -0.0217113 -0.028297763 0.098249584 -0.022607217 0.22260177 0.018038845 -0.42562792
-0.029484099 -0.020269787 -0.29643047 0.12047842 -0.18019727 0.16713369 0.09625554 -0.027102465
0.13284917 -0.109457955 -0.08353866 -0.021068241 -0.028975599 0.06368006 -0.32872993 -0.10554449
-0.16819832 0.13864718 -0.07647968 -0.12028263 0.10735617 -0.011058386 0.06048782 0.0056839916
-0.10393938 0.031626973 0.07247321 -0.12517211 -0.10617254 0.039335668 -0.18806651 -0.11932934
0.2721333 0.034992296 0.13918643 0.081177756 -0.008776203 -0.09628498 0.103673875 0.088917926
0.16630124 0.04474581 0.031100519 0.16084968 -0.372397 0.26192158 -0.21078598 0.13297898
0.15883145 0.07909532 0.14761283 -0.09115619 0.02572021 0.009199407 -0.023972537 0.22342463
0.07480968 -0.10770073 0.005605717 0.16352664 -0.06778761 0.29709435 0.15171911 -0.057872545
0.26026186 -0.0051719677 -0.20642622 0.08501704 -0.10508466 0.36598703 -0.05108761 0.078841366
-0.22283901 0.032158785 0.20199317 -0.082216345 -0.06468395 -0.050160896 0.13645737 -0.035563473
00000000: e117 45be 443d 2abe f592 72be de01 45bd
00000010: 6da2 673c 5cd2 25be ac4c b13d 9bc2 e43d
00000020: 167a a33c f4ee 573e b1b8 4c3e 84cc e4bd
00000030: cea0 9abe f305 51be 6ee2 25be d565 283e
00000040: 3848 353e c23c 61be e377 783e a85a c1bd
00000050: be5a 89be 326f bebd 5c6e 9dbd 75f1 373e
00000060: 2513 46be a7c4 18be 9165 1d3e 9d02 9e3e
00000070: 9b94 443e f04c c8bd 78ca 203c 844a 0cbd
00000080: 26eb a3bd 87cf d83b 9193 d8b8 8121 9dbd
00000090: 800d 193e e866 763d 45aa c2bd f2fc 13bd
000000a0: 1f4a 8abd 6bc8 9ebe 81ee a93c 1333 c5bd
000000b0: b695 58be ba37 c8bd 79f2 10be 1253 453d
000000c0: 4811 bd3e f8b1 653e b140 913e d23a 493e
000000d0: c7a2 5ebd 6a93 30bd 15e9 1e3d 3c8c f03d
000000e0: 4cc4 c33c 55bc 46bd 5363 753e 732a 51be
000000f0: 404a 4fbd 490a f03c 54b3 72be 8a7e 463e
00000100: c00b dd3d eb08 79bd d25d 9c3e 26e7 bbbe
00000110: 8f3f 4f3d 0dee b03d 777a a0bd 896a 0c3e
00000120: d4f5 e5bd 75e8 3abe 74b0 6a3e ee2a 6dbc
00000130: 8443 a33e bd57 13bd f06c 303d 5ea2 1c3e
00000140: 8116 213e 35bd 9c3e c87b 653d b544 89bb
00000150: cd0e cebd 8601 223e 4a98 2abe 5948 d1bd
00000160: 7743 1b3e 121f 2ebe 0006 03be 5dbf 4d3d
00000170: 0733 1cbb fdf1 e43d 0871 6cbd 1166 2bbe
00000180: 69d3 80bd 44dc b43c d8f6 5cbe adec afbd
00000190: 3e63 39be 71c5 8d3d 4a99 30be b28d 0dbe
000001a0: 17ac df3e af5c 8ebe 7a0e 29be 149a 6fbd
000001b0: eefa 153e e7e2 3c3e 7b8f 853e 7588 863e
000001c0: 887d b83d 23a9 71b9 28c0 f8bc ab11 073d
000001d0: e951 f63d e771 66be 153d 74be d87b c43d
000001e0: 47d1 3fbe a542 9dbd 9965 b9bb cc55 383e
000001f0: 2a04 773e 1235 6d3e 4666 35be 74a6 adbd
00000200: dc6a dc3c e1e6 8dbe 1cc5 22be c4a3 a2bd
00000210: c3ec 4bbe 16bc 5c3d 21ff c6bd 8ea4 873d
00000220: 4a68 66bc c3a0 2c3d a77f fb3d fd08 efbd
00000230: ee51 31be 58a1 8dbd 1f25 8d3d d846 b13e
00000240: 77d0 6fbe f992 f83c 4b81 a53d 8aca 293d
00000250: 7cab 853d 06f9 903d d800 893d 9405 babd
00000260: c78c f53c 5bab 433e 4907 1abe f674 3f3e
00000270: 0192 933e b82c 36be f2d7 463e 4182 23bd
00000280: 3291 193e 9aab f53d 53f1 9bbd 3b02 eabd
00000290: b64b c1bd 4fd9 213e d4ff 8a3e db9a 37bc
000002a0: 0544 67bd e5db b1bc b6d0 e7bc 1437 c93d
000002b0: c532 b9bc b8f1 633e 33c6 933c e7eb d9be
000002c0: a388 f1bc d30c a6bc bcc5 97be 64bd f63d
000002d0: a285 38be 1825 2b3e a021 c53d fd05 debc
000002e0: 9d09 083e 7e2b e0bd 5116 abbd 4e97 acbc
000002f0: 3c5e edbc b16a 823d 4a4f a8be b627 d8bd
00000300: 2e3c 2cbe 87f9 0d3e 61a1 9cbd bd56 f6bd
00000310: 8ddd db3d 3c2e 35bc 14c2 773d c740 ba3b
00000320: 2bde d4bd 498b 013d d66c 943d 1e2d 00be
00000330: fd70 d9bd 701e 213d 8294 40be f162 f4bd
00000340: 0e55 8b3e 1554 0f3d e386 0e3e 8640 a63d
00000350: 10ca 0fbc 0f31 c5bd f852 d43d 9a1a b63d
00000360: df4a 2a3e 6247 373d 84c6 fe3c c7b5 243e
00000370: d2aa bebe 961a 863e 48d8 57be a42b 083e
00000380: b6a4 223e bafc a13d d127 173e 19b0 babd
00000390: 31b3 d23c 1cb9 163c 0e62 c4bc 6dc9 643e
000003a0: d135 993d 3392 dcbd 2ab0 b73b 8773 273e
000003b0: 3bd4 8abd c01c 983e 415c 1b3e c30b 6dbd
000003c0: 0b41 853e 9c79 a9bb 6561 53be 6a1d ae3d
000003d0: a036 d7bd a762 bb3e 3e41 51bd 9577 a13d
000003e0: e92f 64be eeb8 033d 4cd7 4e3e 0b61 a8bd
000003f0: 0579 84bd 8375 4dbd 7bbb 0b3e 01ab 11bd
