topic_modeling/bert_topic/results/dep_text/multi-mpnet/my_model/topic_embeddings.safetensors (safetensors, 101464 bytes, 1 tensors)

topic_embeddings f4 [33, 768]
-0.054411154 -0.1235656 -0.21854657 0.010212312 0.14438733 -0.17321631 0.03605707 0.078409314
0.05237537 0.22408436 0.16672717 0.1030355 -0.2923216 -0.28011402 -0.17646617 -0.015195715
-0.020050962 0.06851115 0.14683978 -0.053678922 -0.20041218 0.030165607 -0.09275407 0.120972455
-0.08302901 -0.10970258 0.11331703 0.21141763 0.03672026 -0.04616717 0.039941076 0.009785479
-0.09937168 -0.005483589 -0.000102512 -0.11333345 0.17325054 0.093371905 -0.24214399 -0.09718013
0.02186493 -0.27989894 0.12578152 -0.003275221 -0.1815823 -0.20899011 -0.12237393 0.093315735
0.46647814 0.07357412 0.29746163 0.21196635 -0.055454616 -0.1607854 0.015679426 0.33876824
-0.020859592 0.13431333 0.26178604 -0.38741034 -0.05189414 -0.22648317 -0.21123078 0.27446038
0.20854792 -0.102968924 0.40810183 -0.3128471 0.10107644 0.113078944 0.08552072 0.19551289
-0.08238155 -0.12372558 0.2023583 -0.12963602 0.16947377 -0.07237094 0.059457675 0.21878193
0.1219585 0.42070082 0.19394724 0.0018444875 -0.047610655 -0.027075976 -0.14760798 -0.21632984
0.15888105 -0.12642546 -0.2488967 0.046212424 -0.032467455 0.07150526 -0.08397222 -0.20079081
-0.030993564 -0.0688959 -0.3017092 0.040663313 0.10105753 0.12121219 -0.23071182 -0.13157554
0.4704904 -0.159445 0.11010575 -0.20624176 -0.0223553 0.1401366 0.18753782 0.14555274
-0.033159968 0.021980979 -0.08624342 0.020076694 -0.008474462 -0.090459585 -0.5119973 -0.1357621
-0.28634086 -0.08489086 -0.027792161 0.06774869 0.29728827 0.29685423 -0.23712243 -0.11587306
-0.04258582 -0.14269647 -0.10010308 -0.052361745 -0.36305878 -0.0344966 0.049334727 0.16366743
0.0038729068 0.13694888 -0.1596865 -0.28972796 0.012533525 -0.09838701 0.07991619 0.1924465
-0.1835709 0.079163834 0.17378215 -0.27710626 -0.025623703 0.120075166 0.18250546 0.048570987
-0.03720472 0.18461773 0.033445176 0.20056371 0.096840635 0.003076819 -0.024181344 0.07089261
0.18884501 0.029041981 -0.06958938 -0.098292984 0.111523636 0.024703948 0.036654074 -0.17627764
-0.28774896 -0.02214568 -0.05933355 0.04052153 -0.020874191 0.42182514 0.011016424 -0.3529851
0.06262393 0.19306959 -0.3129812 -0.017344033 -0.20040414 0.19118538 -0.041951016 -0.08091894
0.26485187 0.023482231 0.12411226 0.032716744 0.11375254 -0.16307007 -0.29649857 -0.09355978
0.09989734 0.34024003 -0.11287967 -0.16331215 0.24742351 0.031109769 0.18270436 0.11412587
-0.21186854 0.035477612 0.097064145 -0.11403429 0.01666214 -0.11668644 0.06210191 0.05277481
0.35033643 0.13080569 0.19156943 0.06857761 -0.023084959 -0.11248059 0.05947448 0.0033324424
0.20374118 -0.013023641 -0.12021824 -0.07434946 -0.34288758 0.10514565 -0.022936795 0.038548745
0.17388128 0.14194028 0.24165425 -0.15930827 0.080267325 0.10415449 -0.08055565 0.3195842
0.17048955 -0.20708637 -0.07847127 0.10451142 0.0662285 -0.022198163 -0.06501982 -0.22484656
0.31795532 0.2513857 -0.15289998 0.067461155 0.12680003 0.22685327 0.018342787 0.1313535
-0.33560348 0.008835508 0.20592213 -0.13350298 -0.18822843 -0.08101351 0.33520654 0.06893064
00000000: 3bde 5ebd f60f fdbd acca 5fbe 8b51 273c
00000010: 46da 133e 9e5f 31be 94b0 133d 1095 a03d
00000020: 8e87 563d 5f76 653e 87ba 2a3e 4704 d33d
00000030: 2dab 95be 1b6b 8fbe 8cb3 34be 73f7 78bc
00000040: ea41 a4bc 934f 8c3d 2b5d 163e 6ede 5bbd
00000050: da38 4dbe dd1d f73c d9f5 bdbd 68c0 f73d
00000060: 1d0b aabd bfab e0bd c212 e83d dd7d 583e
00000070: fc67 163d c919 3dbd 4199 233d 4653 203c
00000080: 6183 cbbd aeaf b3bb b6fb d6b8 5e1b e8bd
00000090: 9768 313e c539 bf3d 98f4 77be 6006 c7bd
000000a0: 151e b33c ea4e 8fbe dfcc 003e 17a5 56bb
000000b0: b6f0 39be 8101 56be 2f9f fabd 521c bf3d
000000c0: 39d6 ee3e 07ae 963d e44c 983e b50d 593e
000000d0: 6124 63bd eea4 24be 2472 803c 0873 ad3e
000000e0: bce1 aabc 6f89 093e d208 863e a65a c6be
000000f0: f38e 54bd 34eb 67be e24c 58be 1286 8c3e
00000100: 968d 553e 5fe1 d2bd b9f2 d03e 7f2d a0be
00000110: 2a01 cf3d ef95 e73d 7d25 af3d 8834 483e
00000120: a8b7 a8bd d663 fdbd 0437 4f3e 4ebf 04be
00000130: 888a 2d3e 3737 94bd e489 733d 5f08 603e
00000140: 61c5 f93d 1966 d73e 1b9a 463e bbc2 f13a
00000150: 6403 43bd 70ce ddbc 8c26 17be 9285 5dbe
00000160: b7b1 223e ad75 01be c7de 7ebe 3d49 3d3d
00000170: 98fc 04bd 5a71 923d a1f9 abbd 1b9c 4dbe
00000180: 37e6 fdbc 4b19 8dbd a179 9abe 938e 263d
00000190: 40f7 ce3d 193e f83d b83f 6cbe bdbb 06be
000001a0: 1ee4 f03e 8d45 23be 207f e13d 0a31 53be
000001b0: 7622 b7bc f87f 0f3e ea09 403e c70b 153e
000001c0: bfd2 07bd 7411 b43c 64a0 b0bd e177 a43c
000001d0: 78d8 0abc e042 b9bd 4112 03bf 3805 0bbe
000001e0: 459b 92be 42db adbd 63ac e3bc d3bf 8a3d
000001f0: 2b36 983e 47fd 973e 39d0 72be db4e edbd
00000200: 786e 2ebd 061f 12be d802 cdbd 4579 56bd
00000210: d7e2 b9be 4f4c 0dbd 3613 4a3d 6f98 273e
00000220: 98d0 7d3b 543c 0c3e dc84 23be 3957 94be
00000230: 6a59 4d3c 217f c9bd 19ab a33d b210 453e
00000240: 03fa 3bbe a620 a23d f3f3 313e dfe0 8dbe
00000250: cde8 d1bc f8e9 f53d b6e2 3a3e 5ff2 463d
00000260: fa63 18bd 6e0c 3d3e cffd 083d 9360 4d3e
00000270: 6254 c63d 75a4 493b f417 c6bc 2530 913d
00000280: 9660 413e 73e9 ed3c e084 8ebd d54d c9bd
00000290: 8166 e43d ef5f ca3c 9522 163d 2082 34be
000002a0: d553 93be db6a b5bc bd07 73bd e7f9 253d
000002b0: 5a00 abbc 77f9 d73e 3b7e 343c 77ba b4be
000002c0: fa40 803d 09b4 453e 123f a0be 1315 8ebc
000002d0: be36 4dbe 1ac6 433e d4d4 2bbd d4b8 a5bd
000002e0: aa9a 873e cf5d c03c 922e fe3d fe01 063d
000002f0: 17f7 e83d d7fb 26be a9ce 97be 459c bfbd
00000300: fa96 cc3d f133 ae3e 752d e7bd 4d3b 27be
00000310: 975c 7d3e ead9 fe3c da16 3b3e d3ba e93d
00000320: 11f4 58be f950 113d 91c9 c63d cf8a e9bd
00000330: 0a7f 883c 4df9 eebd 935e 7e3d 662a 583d
00000340: 4c5f b33e edf1 053e c72a 443e 6b72 8c3d
00000350: ab1c bdbc 395c e6bd 839b 733d 1b65 5a3b
00000360: 87a1 503e 1c61 55bc fb34 f6bd 8844 98bd
00000370: f68e afbe 9a56 d73d f2e5 bbbc 4ae5 1d3d
00000380: ef0d 323e cb58 113e 3674 773e b521 23be
00000390: 3263 a43d f34e d53d 5cfa a4bd 8aa0 a33e
000003a0: d094 2e3e 730e 54be 8cb5 a0bd 150a d63d
000003b0: cfa2 873d ecd8 b5bc 1d29 85bd 2d3e 66be
000003c0: 0acb a23e a0b5 803e d091 1cbe 1329 8a3d
000003d0: ded7 013e 394c 683e 9d43 963c 8881 063e
000003e0: 38d4 abbe cec2 103c 40dd 523e 01b5 08be
000003f0: f4be 40be 69ea a5bd 31a0 ab3e 822b 8d3d
