topic_modeling/bert_topic/results/dep_all_phrases/miniLM/my_model/topic_embeddings.safetensors (safetensors, 53848 bytes, 1 tensors)

topic_embeddings f4 [35, 384]
000000 91 9b fc 3c 03 53 d7 3a 28 34 fc 3c e5 1a 9a 3d
       0.030835899 0.0016427938 0.030786589 0.07524661
000010 e0 e5 20 3d 6f 9c ed 3a 1d 64 71 3d 9b ac 63 3c
       0.039281726 0.0018128286 0.058933366 0.013896133
000020 6a 71 8f 3c ca 55 2c bd c2 58 df bc 96 06 f8 bc
       0.017510135 -0.042074002 -0.027264003 -0.030276578
000030 bd 1b b0 3a 9f ad 2f bc 6b 6a 55 3c 1a 4a cd 3b
       0.0013436001 -0.010722547 0.01302586 0.006264937
000040 56 df 85 3b 23 de d3 bc d8 1a 0e bd 8a 24 d6 3c
       0.0040854616 -0.025862759 -0.03469357 0.02614047
000050 d4 af 07 bd e0 37 ba 3c 00 a3 d2 bc 7a 64 a9 3c
       -0.033126667 0.022731721 -0.02571249 0.020677794
000060 39 b3 cb bc 52 51 37 3d 63 fc 95 bc a0 ae e6 bc
       -0.024865733 0.044755287 -0.018308824 -0.02815944
000070 62 38 ac 3c b2 4b 93 bb 91 c8 a7 3c 62 5e 78 3c
       0.02102298 -0.0044951076 0.02048138 0.015159221
000080 90 da c7 3c 7d ad 40 bb af 41 24 3d 33 ad 10 3c
       0.02439621 -0.0029400282 0.040101703 0.008830356
000090 71 f2 5e bc 4f 09 49 3c 25 62 55 bc d8 9f e4 bb
       -0.013607607 0.012270286 -0.013023888 -0.0069770627
0000a0 4f 1c 60 bb 0d 9d 04 3c 28 c7 4b 3c 05 f5 1e bc
       -0.003419656 0.008094084 0.012437619 -0.009701972
0000b0 48 e2 12 bc 68 a0 3a bd 46 cc a8 bc e2 d4 1a bd
       -0.0089650825 -0.04556313 -0.020605218 -0.037800677
0000c0 82 06 2a 3d d0 18 0a bd cd f5 9f 3a bb 67 ba bc
       0.041510113 -0.03371507 0.0012203992 -0.02275454
0000d0 74 e1 df bc 4d bc 84 bc 58 3a 37 3d 23 e7 ab 3c
       -0.027329184 -0.01620307 0.044733375 0.020984238
0000e0 27 4a d4 3c ec 99 1d 3d 8a 38 f0 3b 4c 7e d4 3b
       0.025914265 0.03847687 0.0073309587 0.0064847823
0000f0 1d 13 c2 bb 8f 58 b2 3c e9 64 cd 3b b1 c5 0d bd
       -0.0059226886 0.021770744 0.006268133 -0.03461236
000100 03 d5 9a 3d 71 5f 5e 3d 1e 42 ed 3a 8c 6a d0 b9
       0.0756016 0.05429024 0.001810137 -0.00039752235
000110 d0 9f 2a 3c 62 b7 4f 3d ed ff de bc 4d a7 5f bd
       0.010414079 0.050711997 -0.027221644 -0.05460291
000120 37 4e ae ba c2 ba 56 bc 18 83 95 ba 02 09 4f 3c
       -0.0013298456 -0.01310605 -0.0011406867 0.012636425
000130 5d 63 8f 3c e3 21 33 bd 88 c8 34 3d cb 85 41 3d
       0.017503435 -0.04373349 0.044136554 0.047246736
000140 3c 9a 92 39 d1 4f 13 3d e8 9f 20 bd 3e 38 67 bc
       0.00027962204 0.03596479 -0.039215 -0.01411253
000150 31 14 1f bd 08 1a 16 bd ad 59 d5 3c 4d df ea ba
       -0.038837615 -0.03664592 0.026043737 -0.0017919332
000160 a3 d1 84 3c 53 bd cf 3c 4a 2c df bc 2e bf c8 bb
       0.016213244 0.025358832 -0.027242798 -0.006126306
000170 80 dc 81 bc db ef a1 3c e5 5c 7b 39 a3 da f5 3b
       -0.015852213 0.019767692 0.00023971831 0.00750287
000180 83 4d f3 bc c3 a0 8c 3c 18 14 dd bd 26 e3 ab 3d
       -0.029700046 0.0171665 -0.10794848 0.083929345
000190 9d 88 70 bc 24 7b 4e 3d 39 06 09 3d a2 7f 71 3c
       -0.014681009 0.050410405 0.0334532 0.014739903
0001a0 df ca 3d bc 16 c3 a8 3c 96 fc ec bb 1f 43 96 3b
       -0.011584013 0.020600837 -0.007232259 0.004585638
0001b0 6f d9 e3 bc f6 60 df bc 3d 2f 95 bd 19 7b 05 bd
       -0.027813641 -0.027267914 -0.072844006 -0.0325881
0001c0 a2 35 b6 3b d9 9a 89 bb ad 79 84 3b 59 bb dd 3c
       0.0055605927 -0.0041993675 0.004042825 0.027066873
0001d0 98 b2 3d bc 23 30 20 3c 93 1f 41 3c 47 d9 78 3d
       -0.011578225 0.009777102 0.011787313 0.060754087
0001e0 54 42 17 3c 5e a5 f7 ba 15 08 04 bb 9b 35 02 3c
       0.009232122 -0.0018893888 -0.0020146419 0.007947351
0001f0 1d 45 9f 39 20 13 30 3b 5e e3 c9 bc d8 b6 29 09
       0.00030378337 0.0026866868 -0.02464455 2.0428608e-33
000200 2f f5 8f 3d 0c d1 b6 bc 06 1f a6 3c 13 13 75 3d
       0.07029187 -0.022316478 0.020278465 0.059832644
000210 c0 c4 34 ba f4 59 fb b9 4b b7 26 bc 3e fe 02 3b
       -0.0006895773 -0.0004794147 -0.010175536 0.0019987966
000220 61 4c 92 3c 85 30 76 bc 76 4a 26 3b a3 c3 20 3c
       0.017858686 -0.015026216 0.0025373972 0.009812268
000230 72 5f 01 bd 52 9d 86 bc 28 18 cf bc a7 7e 5a bd
       -0.031585164 -0.016432438 -0.025280073 -0.05334344
000240 43 95 9b bc 05 61 70 3b c9 43 23 3d 9b f8 1a 3d
       -0.018992072 0.0036678922 0.039859567 0.037834745
000250 93 c1 a8 bc 73 ad 15 3c f2 0a 06 bc e3 1c a3 bc
       -0.020600116 0.009135592 -0.0081813205 -0.019911235
000260 cc bb 4f bc 3e e3 cc 3b 40 e8 f1 3b 40 d9 5e bc
       -0.012679052 0.0062526753 0.0073824227 -0.013601601
000270 f7 83 c2 bc 76 aa 6a 3c 2e 75 90 bc 4d ce 12 3d
       -0.023744566 0.014322868 -0.017634 0.035841275
000280 1d 1a 2b 3c 18 54 4c bd 07 c8 f5 bc af f0 e7 bb
       0.010443238 -0.049884886 -0.030002607 -0.0070782523
000290 83 ca 0a 3b 3f c2 15 3d fc f6 0e bc 5d ac 0c bd
       0.0021177835 0.0365622 -0.008725878 -0.034344066
0002a0 13 7f a4 bc 6d cc 00 3d a8 a9 f1 ba 4a 83 77 bc
       -0.020080125 0.031444956 -0.0018437402 -0.015106985
0002b0 2c fd 0e 3d e9 e7 0a 3d a4 a7 0e 3d e5 db ef bc
       0.034909412 0.033912573 0.034827843 -0.029279659
0002c0 31 cf 5b bd 38 31 32 3d 53 b4 a5 bb 5e c2 c4 3b
       -0.05366439 0.04350397 -0.0050568967 0.0060046157
0002d0 9e ca 63 bb 22 a8 fb bc 2d fd 68 bd 98 76 1f bd
       -0.003475822 -0.03071982 -0.056882072 -0.03893146
0002e0 5d b2 49 bb 09 fd 4d bb e5 3a 9f 3c f4 f1 e3 bb
       -0.0030776479 -0.0031431338 0.019437263 -0.0069563333
0002f0 4e d4 43 3d 4a 9c 3c bc e3 3b 25 bd 98 38 58 bd
       0.04780989 -0.011511872 -0.040340316 -0.052788347
000300 d7 8f 23 3c f6 d6 c4 3b bc eb 19 bc 34 e4 77 bd
       0.009983025 0.0060070707 -0.009394582 -0.060520366
000310 aa 29 35 bd 58 ec 21 bc bf 21 4e bc 8d a8 b7 3c
       -0.044229187 -0.009883009 -0.012581288 0.022419238
000320 88 a8 51 3c 1e 16 db bc 14 6c da 3c 48 b2 92 bb
       0.012796529 -0.026743945 0.026662864 -0.004476819
000330 67 d1 7d ba 9d bc 97 bd 60 8f 0f bd e2 ef 5f bd
       -0.00096823875 -0.07409022 -0.035048842 -0.05467213
000340 dd 19 10 3d ca 74 9a bc 2e dc 9e bc 1e df d4 3b
       0.035180915 -0.018854517 -0.0193921 0.006496324
000350 2c 41 10 3d 65 c3 0a ba a2 03 bb bc d0 fc 34 bd
       0.035218403 -0.0005293398 -0.02282888 -0.044186413
000360 1b aa 6c bd b0 8b 1d 3d 13 bf df bc 64 8e 03 3c
       -0.057779413 0.038463295 -0.027312791 0.008029554
000370 fa 2a 26 3d 5e 43 8a bc f9 8b 0f bd 7b 1a 1d 89
       0.04056833 -0.016877826 -0.035045598 -1.8910639e-33
000380 d9 a2 f5 3c 1a f0 d6 bc 93 a2 aa bc f3 9e 23 3c
       0.029984878 -0.026237536 -0.020829475 0.009986627
000390 1d 51 bd 3c 15 d0 a0 bb 28 cf 66 bb aa 2a a0 3b
       0.023109967 -0.004907618 -0.003521869 0.0048878985
0003a0 47 54 d6 3b 67 7b 8a 3d da 24 0a 3d 25 a8 e2 bc
       0.0065408084 0.067618184 0.03372655 -0.027668068
0003b0 bb a1 fb 3c ea 13 6a 3d 76 5d 95 bb 5d 1b ab bc
       0.030716768 0.057147898 -0.0045582606 -0.020887071
0003c0 79 ef 3e 3d 2d 2f 40 3c 08 a9 ee bc 3f 2c 4a 3b
       0.046615098 0.011729998 -0.029133335 0.0030849127
0003d0 05 4e 40 bc 5b 65 a5 3d de 9f e9 bc 29 57 93 bc
       -0.011737351 0.08075973 -0.028518613 -0.017985897
0003e0 65 b6 a0 3c 38 c0 29 3d a1 3b 9f 3c 60 f9 c9 3c
       0.019618222 0.04144308 0.019437613 0.024655044
0003f0 b7 0c d7 bc e3 5d 11 bd af dc 47 3c 7b 26 c4 3c
       -0.02625118 -0.035489928 0.012198611 0.02394413
