topic_modeling/bert_topic/results/wor_all_words/distilroberta/my_model/topic_embeddings.safetensors (safetensors, 113752 bytes, 1 tensors)

topic_embeddings f4 [37, 768]
0	0xbc692595	-0.014230152
1	0xbc8b0db5	-0.01697431
2	0x3c744b2d	0.014910501
3	0x3b1f2319	0.0024282394
4	0x3d20287d	0.039101113
5	0xbc4efbba	-0.0126332585
6	0xbca349d3	-0.019932663
7	0x3c3f1246	0.011662072
8	0x3c81fdb7	0.015868051
9	0xbbb0148f	-0.0053735445
10	0xbcefae71	-0.029257985
11	0x3b939c3e	0.0045047095
12	0x3c386824	0.011255298
13	0x3c734f32	0.014850425
14	0xbc8912ed	-0.016732657
15	0xbd5988bc	-0.053108916
16	0x3d3ee539	0.046605323
17	0xbcd7a76b	-0.026324948
18	0x3c1980bf	0.009369074
19	0xbcb8bd11	-0.022551091
20	0x3b109ac5	0.0022064906
21	0xbc736e06	-0.014857775
22	0xbd0c07f2	-0.034187265
23	0x3c193b25	0.00935248
24	0x3c3348d3	0.010942656
25	0x3c80838d	0.015687728
26	0x3d0fae22	0.035078175
27	0xba592de4	-0.00082847313
28	0xbc9e5271	-0.01932642
29	0xbb991a4f	-0.0046723257
30	0xbc80a1eb	-0.015702209
31	0x3c8ee8d0	0.017444998
32	0xbc8193ee	-0.015817609
33	0xbc53661f	-0.012902766
34	0x3b2bbed9	0.0026206283
35	0x3c409bcd	0.011755896
36	0xbd0475e7	-0.032339003
37	0xbb684627	-0.0035442205
38	0x3cdbfb70	0.026853293
39	0x3ca19ff7	0.019729597
40	0xbd6cdb2b	-0.057826202
41	0xbc4d27e2	-0.012521716
42	0xbc388a2f	-0.011263414
43	0xbbebd65a	-0.0071971836
44	0x3cc05a15	0.023480454
45	0xbc18a5a9	-0.00931684
46	0xbbcc8e5b	-0.006242556
47	0x3cfd7d0c	0.030943416
48	0xbcb71f77	-0.02235387
49	0x3b7792d9	0.0037776737
50	0x3b316400	0.0027067661
51	0x3c01c328	0.007920064
52	0xbc6e5991	-0.0145477215
53	0x3b8ad8c8	0.004237268
54	0x3c23a89b	0.009988929
55	0xbc36ad44	-0.011149708
56	0xb907f218	-0.0001296479
57	0x3c9e89a7	0.019352747
58	0xbab87bce	-0.0014074983
59	0xbc4ea1c3	-0.012611809
60	0x3d79c253	0.060976338
61	0x3b9a3fcd	0.0047073127
62	0xbc4b8de0	-0.012423962
63	0x3cd792a3	0.026315039
64	0x3c27eb81	0.01024902
65	0x3c401578	0.011723869
66	0x3af6a2e1	0.0018816852
67	0x3c9d6823	0.019214695
68	0x3bb5eb3d	0.005551724
69	0xbad27f09	-0.0016059588
70	0x3c056b95	0.008143325
71	0x3d218725	0.039435524
72	0x3b9e3c15	0.0048289397
73	0xbacdf87f	-0.0015714316
74	0x3a4cb269	0.00078085676
75	0x3c8b579b	0.017009547
76	0xbce40da1	-0.02783853
77	0xbd18bc33	-0.037288856
78	0xbd313ddb	-0.04327188
79	0x3bcc02bb	0.0062259114
80	0xbc7468be	-0.014917551
81	0x3b9491bc	0.0045339745
82	0xbd01401d	-0.031555284
83	0xbb91502f	-0.0044346075
84	0xbc254315	-0.010086794
85	0xbb818171	-0.003952198
86	0xbc58da77	-0.01323568
87	0x3a5c3a3b	0.0008401011
88	0xbc5d24a6	-0.013497507
89	0xbd03ee4c	-0.03220968
90	0x3ca470b3	0.02007327
91	0xbc8e2235	-0.017350296
92	0x3cb58a62	0.022160713
93	0x3c84b0f2	0.016197655
94	0x3c236b90	0.009974375
95	0xbc867bc9	-0.016416447
96	0xbc2d91d0	-0.010593846
97	0x3cd25be9	0.025678592
98	0x3a0b577d	0.0005315466
99	0xbc5bd00b	-0.0134163005
100	0xbbb8a383	-0.0056347265
101	0xbbd967a0	-0.0066346675
102	0xbcbb5bb7	-0.022870881
103	0x3cca504d	0.024696494
104	0x3d2ef8c3	0.042717706
105	0xbcb7c8f6	-0.022434693
106	0xbb932754	-0.0044907723
107	0x3b1913c0	0.002335772
108	0xb8d5f7be	-0.00010202777
109	0x3cc9e7d0	0.02464667
110	0xbd026277	-0.031832185
111	0xbbd20dd5	-0.0064103403
112	0x3c957e6d	0.018248761
113	0x3cff8dcb	0.031195542
114	0x3b724dba	0.0036972598
115	0xbb64bedb	-0.0034903798
116	0xbc79d497	-0.015248439
117	0x3d2bc533	0.04193611
118	0x3a0657ec	0.0005124796
119	0x3ccd309f	0.025047598
120	0xbc1141e5	-0.008865808
121	0xbc20bb44	-0.009810273
122	0x3c9349b1	0.017979475
123	0xbc62735c	-0.013821449
124	0x3c2d0c40	0.010562003
125	0x3c88fbb1	0.016721578
126	0x3ccf0cee	0.02527472
127	0x3ce27a79	0.02764629
128	0xbb622d68	-0.0034511928
129	0x3d02f02e	0.031967334
130	0xbc81f0f9	-0.015861975
131	0x3a1b493f	0.0005923695
132	0xbb496087	-0.00307277
133	0x3c85e073	0.016342377
134	0xbcc18135	-0.023621181
135	0xbc074701	-0.008256675
136	0xbd37babc	-0.04485582
137	0x3bba95af	0.005694113
138	0xbb934501	-0.00449431
139	0xbaf0a368	-0.0018359246
140	0xbd1da5c4	-0.038488165
141	0xbb92a16c	-0.0044748094
142	0x3ccd6797	0.02507381
143	0xbc846887	-0.016163124
144	0x3a0eec3e	0.0005452073
145	0x3cb3b0e5	0.021934936
146	0x3b383c09	0.0028111956
147	0xbc24d054	-0.010059435
148	0xbd68cff4	-0.056838945
149	0x3d293a30	0.041315258
150	0x3b8c6086	0.0042839674
151	0xbc651273	-0.013981449
152	0xbc65af83	-0.014018896
153	0xbce27e9c	-0.027648263
154	0x3d02309e	0.031784646
155	0xbccbc1b8	-0.024872646
156	0x3d0dde87	0.034636047
157	0x3cbf24eb	0.023333034
158	0x3d046988	0.032327205
159	0xbc79d418	-0.015248321
160	0x3c96f194	0.01842574
161	0xbc5fef0b	-0.013667832
162	0x3c569c33	0.013098764
163	0xbcf13d91	-0.029448302
164	0x3b3eb579	0.0029099865
165	0xbc000cec	-0.007815581
166	0xbc2c43bb	-0.010514195
167	0xbba762e1	-0.005108223
168	0x3b1dc0ba	0.0024071173
169	0xbcc151f3	-0.023598647
170	0x3c462a16	0.012094995
171	0x3cac01ea	0.020997006
172	0xbcd45880	-0.025921106
173	0x3c89525a	0.016762901
174	0x3d03392b	0.03203694
175	0x3d1b5c0d	0.037929583
176	0x3b91e811	0.0044527133
177	0xbb133f15	-0.002246802
178	0x3b2f32cc	0.0026733158
179	0x3cb20870	0.021732539
180	0x3bef6b24	0.0073064733
181	0x3cd2fbd0	0.02575484
182	0xbc00346a	-0.0078249965
183	0xbc29099f	-0.010317235
184	0xbc8dd4fc	-0.017313473
185	0xbd4aca44	-0.0495093
186	0xbc597de9	-0.013274648
187	0xbc8d672f	-0.017261116
188	0xba9aa528	-0.0011798488
189	0xbcf8a95b	-0.030354192
190	0x3c86fbd6	0.016477507
191	0x3b06fc4f	0.0020597165
192	0x3cc130b4	0.023582794
193	0xbc465abd	-0.012106595
194	0x3cf42a98	0.029805467
195	0x3cbd80b5	0.023132661
196	0x3c1b82ee	0.009491665
197	0x3ca28296	0.019837659
198	0xbc06b537	-0.008221916
199	0xbcad3255	-0.021142164
200	0xbca7e9f4	-0.0204973
201	0x3c66c97b	0.014086123
202	0x3ca06137	0.019577606
203	0xbd40ea88	-0.047098666
204	0xbc563845	-0.013074939
205	0xbbd4944b	-0.0064874045
206	0xbcf4220a	-0.029801387
207	0x3c538e0d	0.0129122855
208	0x3a90c7d1	0.0011045878
209	0xbc7e2910	-0.01551272
210	0xbc0e3fdc	-0.008682217
211	0x3a306c1f	0.00067299785
212	0xbcda6238	-0.026658162
213	0xbbadcb07	-0.0053037438
214	0x3cce5616	0.025187533
215	0x3cc3edab	0.02391704
216	0xbc485448	-0.0122271255
217	0x3d156e07	0.036481883
218	0xbc0a4a65	-0.008440589
219	0xbc917ab3	-0.017758703
220	0x3c00c08e	0.007858409
221	0xbba86087	-0.00513846
222	0x3ca1b3ca	0.01973905
223	0x3c2a02bb	0.010376628
224	0x3c936be5	0.017995784
225	0x3ccfdcbf	0.025373815
226	0x3d0d4d32	0.034497447
227	0x3c4ce90c	0.012506735
228	0x3c4187d2	0.011812167
229	0xbc6d9997	-0.014501951
230	0xbcc17d68	-0.023619369
231	0x3ce3d2cf	0.027810482
232	0xbcb04643	-0.021517878
233	0xbd0e5582	-0.034749515
234	0x3cccde7b	0.02500843
235	0xbd5dd354	-0.054156616
236	0x3d3b92ac	0.045794174
237	0x3cb955f8	0.022624
238	0x3cbae03e	0.022812005
239	0xbd425e2f	-0.0474531
240	0xbc77d103	-0.015125516
241	0x3d0915d0	0.033468068
242	0x39fb52f2	0.0004793625
243	0x3c773bd7	0.0150899505
244	0x3c972e31	0.018454643
245	0x3c361615	0.011113663
246	0x3c5b2518	0.013375543
247	0x3c8a3cb5	0.01687465
248	0xbba2d299	-0.004968953
249	0xbc71075c	-0.014711227
250	0x3c52d0b2	0.01286714
251	0xbc38e995	-0.011286159
252	0xbca85f8c	-0.020553373
253	0xba309dc4	-0.0006737376
254	0xbbd976a2	-0.0066364566
255	0xbcd0a473	-0.02546904
